weights/mean_2.pth (torch, 1554 bytes, 1 tensors)

0.weight f4 [1, 32]
0.03816261 -0.14654991 0.09889327 -0.12885304 0.15108724 -0.0735425 -0.061420836 0.023346204
0.083690844 0.12779681 0.09889963 -0.085998766 -0.034377035 0.025414238 0.005701359 -0.07823728
-0.056243077 -0.125692 -0.031063247 0.08081152 -0.14992444 -0.06488176 -0.043971583 -0.04506982
-0.104952835 -0.097187705 -0.1470195 -0.17383473 0.0487237 -0.021122485 -0.16908155 -0.18467252
00000000: 6650 1c3d 2e11 16be 8e88 ca3d 0df2 03be
00000010: 9db6 1a3e 739d 96bd 6a94 7bbd 8a40 bf3c
00000020: 1b66 ab3d 2bdd 023e e48b ca3d 1f20 b0bd
00000030: efce 0cbd 8531 d03c 77d2 ba3b de3a a0bd
00000040: 245f 66bd 67b5 00be 5a78 febc 8380 a53d
00000050: cb85 19be bae0 84bd 8c1b 34bd 229b 38bd
00000060: 83f1 d6bd 590a c7bd 488c 16be bb01 32be
00000070: 8192 473d 1009 adbc b723 2dbe cb1a 3dbe
