weights/meanv2_mujoco.pth (torch, 1660 bytes, 1 tensors)

0.weight f4 [1, 32]
000000 98 a4 6c be ed 67 02 3e 7a 88 7f be a3 47 30 bd
       -0.23109663 0.12734957 -0.24954405 -0.043037068
000010 fe 36 79 bc 06 aa b4 bd 89 3f 95 3e c6 35 84 3e
       -0.015210865 -0.08821492 0.29150036 0.25822276
000020 ca cf a0 be 59 f0 dc 3c 4c d4 16 3e 45 e1 05 3e
       -0.3140853 0.026970075 0.14729422 0.13074215
000030 7c cb 8c 3e 40 0f d4 bd 5e 85 a8 bc b5 aa 84 3e
       0.27498996 -0.10354471 -0.020571407 0.2591149
000040 07 bf 15 3e 28 42 6e 3d b9 f9 f9 3d 79 ea aa bd
       0.14623652 0.05816856 0.12205834 -0.08345503
000050 10 2d 77 3e b5 bc f6 bd 36 17 18 3e 93 d8 8e be
       0.24138284 -0.12047712 0.14852604 -0.27899608
000060 95 33 bc 3d e0 b6 11 3e bf 11 69 3d 1f c1 a1 3e
       0.09189526 0.14229918 0.05690169 0.31592652
000070 74 3c a0 be dd 6b a2 3e 88 2a 2c be c7 52 54 be
       -0.31296122 0.31722918 -0.168131 -0.20734702
