weights/meanv3_mujoco.pth (torch, 1660 bytes, 1 tensors)

0.weight f4 [1, 32]
00000000: e511 8b3e 26a2 a1bc 520f 1e3e 10d7 2bbe
00000010: fdf8 4bbe 3129 983e f683 2d3e 6b46 ea3d
00000020: fce3 82be 02ed 6dbd 3db8 b63d 3a88 313e
00000030: 33f9 89bd 2b10 f83d 89ce 3d3e e6b7 733e
00000040: 532c a23c 3f59 283e e79e 62bd 9b78 793e
00000050: d4d0 67bd 1df9 513e bfe4 703e 84c4 903d
00000060: ae85 35be 1d16 a33e a6f2 65be 7027 413e
00000070: d57b 94bd e519 76be c650 26be 0f46 553e
0.2716209 -0.019730639 0.15435532 -0.16781259 -0.199192 0.29718927 0.1694487 0.114392124
-0.25564563 -0.058087356 0.089218594 0.17337123 -0.06736984 0.12112459 0.18535818 0.2380062
0.019796526 0.16440295 -0.055327322 0.24362414 -0.05659564 0.20505185 0.2352476 0.070687324
-0.17726776 0.3185281 -0.22455844 0.188627 -0.072501816 -0.24033315 -0.1624175 0.20827506
