weights/mean_3.pth (torch, 2479 bytes, 1 tensors)

0.weight f4 [1, 32]
0	0x3d183d4b	0.03716783
1	0xbe164335	-0.14674075
2	0x3dca2484	0.09870246
3	0xbe037bf7	-0.12840258
4	0x3e1aaadc	0.1510424
5	0xbd9714cd	-0.07377014
6	0xbd798efd	-0.06092738
7	0x3cc06d89	0.02348973
8	0x3da72a74	0.08162394
9	0x3e033909	0.12814726
10	0x3dc9a2f3	0.09845533
11	0xbdaf741a	-0.085670665
12	0xbd0b247c	-0.03397034
13	0x3ccd1628	0.025034979
14	0x3bcc5196	0.0062353117
15	0xbda16a2d	-0.078815795
16	0xbd661539	-0.056172583
17	0xbe00b726	-0.12569866
18	0xbd0082e5	-0.03137483
19	0x3da5f742	0.08103801
20	0xbe18f27f	-0.14936255
21	0xbd848452	-0.064705506
22	0xbd36612e	-0.04452627
23	0xbd3999d6	-0.045312725
24	0xbdd72fa6	-0.10507135
25	0xbdc7c215	-0.09753815
26	0xbe173458	-0.14766061
27	0xbe319aae	-0.17344162
28	0x3d483a03	0.04888345
29	0xbcb046a0	-0.021518052
30	0xbe2de5fa	-0.1698226
31	0xbe3cd780	-0.18441582
