weights/mean_5.pth (torch, 1554 bytes, 1 tensors)

0.weight f4 [1, 32]
0	0x3d3b6ccb	0.04575805
1	0xbe1c9fa3	-0.15295272
2	0x3ddd24c1	0.10798026
3	0xbdfeed11	-0.124475606
4	0x3e1f440f	0.15553306
5	0xbd8952f4	-0.06705275
6	0xbd71a9d4	-0.05899985
7	0x3cf7a05a	0.030227829
8	0x3d9dc8c7	0.07704311
9	0x3e0692dd	0.13141961
10	0x3dc54728	0.096327126
11	0xbdbf7069	-0.093476124
12	0xbd2f0066	-0.04272499
13	0x3cbe2272	0.023209784
14	0x3c071eea	0.008247117
15	0xbda80052	-0.08203186
16	0xbd3e8828	-0.046516567
17	0xbe01b8db	-0.12668173
18	0xbd185f1b	-0.037200075
19	0x3da6d00c	0.081451505
20	0xbe17a0cf	-0.14807437
21	0xbd801cd1	-0.06255496
22	0xbd401590	-0.046895564
23	0xbd302cf5	-0.043011624
24	0xbdec1a9a	-0.11528511
25	0xbdcf8306	-0.101324126
26	0xbe1a75e1	-0.1508403
27	0xbe372255	-0.1788419
28	0x3d647982	0.05577994
29	0xbce3218d	-0.02772596
30	0xbe337961	-0.17526771
31	0xbe46fe7f	-0.1943302
