weights/mean.pth (torch, 1542 bytes, 1 tensors)

0.weight f4 [1, 32]
00000000: 47ef 113d d1cc 11be 482f b93d dd25 04be
00000010: 04a0 1b3e 5d8a 9ebd cd7f 6bbd 92b0 9d3c
00000020: 2ffc b83d 93f2 f53d d749 c53d 11a0 aabd
00000030: ee7e e5bc 0e89 b83c ef67 083c a292 a5bd
00000040: 9a1b 85bd 64b8 f8bd dfad e4bc 35da 983d
00000050: 0503 17be c6a4 80bd 1de3 3cbd 7e80 39bd
00000060: ca62 c2bd 59a3 c6bd 721d 17be ddc8 30be
00000070: 8fdb 353d a45a 9cbc ca81 2bbe b312 34be
0.035628583 -0.14238288 0.09042221 -0.12905069 0.1519776 -0.077412345 -0.057494927 0.019249234
0.09032475 0.12009158 0.096332245 -0.083313115 -0.028014626 0.02252629 0.008325561 -0.080846086
-0.06499405 -0.12144545 -0.02791494 0.07463495 -0.14747246 -0.06281428 -0.04611503 -0.045288555
-0.09491499 -0.09699125 -0.14757326 -0.17264123 0.04439884 -0.01908619 -0.1674873 -0.17585258
