weights/mean_4.pth (torch, 1554 bytes, 1 tensors)

0.weight f4 [1, 32]
0	0x3d1c260c	0.03812222
1	0xbe17d0e7	-0.14825784
2	0x3dce540e	0.10074626
3	0xbe024dcc	-0.1272499
4	0x3e1c0cc4	0.15239245
5	0xbd94abe1	-0.07259346
6	0xbd7427aa	-0.05960814
7	0x3ccdbc85	0.025114307
8	0x3da345d6	0.079723045
9	0x3e029afb	0.12754433
10	0x3dc6cf59	0.09707517
11	0xbdb1f96c	-0.086901516
12	0xbd0c12ca	-0.034197606
13	0x3cc1c8d3	0.02365533
14	0x3bf8ae11	0.0075891097
15	0xbda48b1e	-0.08034347
16	0xbd6064f3	-0.054783773
17	0xbdff3107	-0.12460523
18	0xbd067bc9	-0.032832894
19	0x3da400ea	0.08007987
20	0xbe17a6c3	-0.14809708
21	0xbd822d31	-0.06356276
22	0xbd3c4520	-0.04596436
23	0xbd34f726	-0.04418101
24	0xbdd91596	-0.1059982
25	0xbdcaa978	-0.09895605
26	0xbe18a501	-0.14906694
27	0xbe32d07d	-0.17462344
28	0x3d4ec13f	0.050477263
29	0xbcbdaa4c	-0.023152493
30	0xbe2fa0cc	-0.17151183
31	0xbe3e544f	-0.18586849
