weights/mean_mujoco.pth (torch, 1648 bytes, 1 tensors)

0.weight f4 [1, 32]
00000000: af94 2e3e d3de 0c3e 0ca6 fc3d f0df 0bbd
00000010: 9741 223d 32ab f1bd 0d18 96be c587 80be
00000020: 6d6b 69be 435f 1dbd 4668 b2bd 581e 4e3e
00000030: 58dd b03e ba75 4a3e 244e 84b9 d54f bebd
00000040: 9661 55bd b31c 813e dd45 04be 3151 95be
00000050: b972 d43c e0b9 1e3e 63a2 3b3d da97 2f3e
00000060: faa9 0c3e 25e2 e83d ce80 62be d232 4ebe
00000070: 3518 883d 9fb8 5ebe c9df c6bd de57 46be
0.17048906 0.13756876 0.123363584 -0.03414911 0.039613333 -0.11800231 -0.29315224 -0.25103584
-0.22794886 -0.038420927 -0.08711295 0.20128763 0.34543872 0.19771472 -0.0002523522 -0.092925705
-0.05209502 0.25217208 -0.12917276 -0.29163507 0.02593361 0.15500593 0.04580916 0.1714777
0.13736716 0.11371259 -0.22119448 -0.20136574 0.06645242 -0.21750115 -0.097106524 -0.19369456
