weights/mean_6.pth (torch, 1554 bytes, 1 tensors)

0.weight f4 [1, 32]
000000 3a aa 3a 3d ef d7 1c be 83 91 dd 3d a7 99 fe bd
       0.045572497 -0.15316747 0.1081877 -0.124316506
000010 51 33 1f 3e 69 21 89 bd a5 d1 71 bd 24 59 f9 3c
       0.1554692 -0.066958256 -0.059037823 0.030438013
000020 a2 c2 9c 3d 20 1f 06 3e 3b 55 c5 3d d6 99 bf bd
       0.07654311 0.13097811 0.09635397 -0.09355514
000030 e0 4f 31 bd 2f 1d bd 3c 1b 0f 06 3c 54 24 a8 bd
       -0.043289065 0.023085205 0.008182312 -0.08210054
000040 1a 5d 3c bd 0b 69 01 be ff e2 18 bd ce 8c a6 3d
       -0.045987226 -0.12637727 -0.037325855 0.08132325
000050 d0 a4 17 be 25 64 80 bd f4 4b 40 bd ec 26 32 bd
       -0.14808965 -0.06269101 -0.046947435 -0.04349415
000060 d7 96 ed bd d8 49 cf bd 98 7e 1a be 6c 12 37 be
       -0.11601036 -0.101215065 -0.15087354 -0.17878121
000070 0d 29 65 3d d1 9f e4 bc 40 c0 33 be c4 3c 47 be
       0.055947352 -0.027908238 -0.17553806 -0.19456774
