weights/shared_weights_4.pth (torch, 4632 bytes, 4 tensors)

0.weight f4 [16, 4]
000000 43 34 b2 bc 28 9d 9e be 44 36 bd bc de de ac 3e
       -0.021753436 -0.30979276 -0.023097165 0.33763784
000010 2a 64 88 3e fb ee 94 be 1e d0 87 3e a0 69 88 bd
       0.2663892 -0.29088578 0.26525968 -0.06660771
000020 e4 98 9e 3e ab fb 00 3f 67 0f f5 3e 33 d1 4f 3e
       0.3097602 0.50384015 0.47863314 0.20294647
000030 3f 62 89 3e e7 02 35 3e d2 7e 6f bd 2c 75 ed 3e
       0.26832768 0.17676888 -0.058470555 0.46378458
000040 db 94 b2 be 0f c2 fe 3e 8e a6 88 be 31 e3 47 be
       -0.34879193 0.4975743 -0.2668957 -0.1952026
000050 67 9e c9 be 5c e4 b4 be d5 5d 83 3e fd ee 99 be
       -0.39378664 -0.35330474 0.25657526 -0.30065146
000060 8b cc 81 ba 7e 00 1b 3e e1 8d 27 be 94 81 19 bc
       -0.0009902878 0.15136907 -0.16362716 -0.009369273
000070 50 b7 66 be c1 b5 ab 3e e8 10 36 3e 94 62 d0 be
       -0.22530866 0.33537105 0.17779887 -0.4070021
000080 b2 6e 41 bd 64 84 8c 3e 55 47 a2 3e d4 df f0 3e
       -0.047224708 0.27444756 0.31695047 0.47045767
000090 7b 42 c1 be 07 3a 28 be 93 79 f2 be 41 e8 d5 be
       -0.37746033 -0.16428386 -0.4735838 -0.41778758
0000a0 5d fd ea be 80 8d c2 bd 89 99 9d 3e d4 a0 9f 3e
       -0.45896426 -0.09499645 0.307812 0.3117739
0000b0 53 dc d4 3e b9 ed ce 3e 9b b1 79 be 59 f2 95 bc
       0.41574344 0.40415743 -0.24384157 -0.018304037
0000c0 63 37 ec be fc 94 48 3e 13 3c da bd 43 ab ea 3e
       -0.46136007 0.19588083 -0.106559895 0.45833787
0000d0 84 ba 50 be f0 04 7a bd 9c 0f fe be b6 6c 7d 3e
       -0.2038365 -0.061039865 -0.49621284 0.24748501
0000e0 b7 8d 14 be 25 17 12 3c 8d 71 0e bd 17 ce 1e be
       -0.14507185 0.008916651 -0.03477626 -0.15508305
0000f0 c9 f5 5a 3e 87 89 d9 be 6a 26 8f be 03 3e b5 3d
       0.21382822 -0.42487738 -0.27958995 0.088497184

0.bias f4 [16]
000000 c8 43 d3 be 5c 2e ae bd 80 bc c2 3e a6 77 12 3e
       -0.4126265 -0.08504936 0.3803444 0.14303455
000010 34 75 d4 be 7d 7a eb be d9 da bf be 01 f2 90 be
       -0.4149567 -0.4599189 -0.37471655 -0.28309634
000020 06 05 c8 3e 16 f7 9d 3e 2d b3 82 3d 0e bb a7 3e
       0.39066333 0.30852574 0.06381831 0.327599
000030 66 40 98 3e e6 32 5f 3e 5d 7b 49 3d f4 d3 e3 be
       0.29736632 0.2179676 0.049189914 -0.44497645

2.weight f4 [32, 16]
000000 5e 8e 75 be 3e 00 78 3e 37 c9 23 3e 41 54 23 be
       -0.2398009 0.24218842 0.15994726 -0.15950109
000010 a9 46 2a 3e c7 71 13 3e e0 0e 69 bd f7 4c 85 be
       0.16628517 0.14398871 -0.05689895 -0.26035282
000020 fa 0a 04 be b0 ed 4d be 80 37 77 bd 06 0d 59 3e
       -0.12894812 -0.20110202 -0.060355663 0.21196374
000030 9c 45 4e bc 13 9b 78 bd 91 f0 17 be 8b 6f 04 3e
       -0.012589838 -0.060694765 -0.14837863 0.12933175
000040 03 27 72 bd 50 6b b5 3b 6a d9 e7 bd e8 87 b9 bc
       -0.059119236 0.0055364743 -0.11320765 -0.022647813
000050 1d 47 1e 3d 21 c4 e0 bd 43 ff bf 3c a0 bf 0e 3e
       0.038642038 -0.109749086 0.023437148 0.13940287
000060 4e b6 3a 3e 70 28 bf 3b 9e 64 d5 bc a4 d3 4f 3e
       0.18233606 0.005833678 -0.026048955 0.20295578
000070 c7 5d 2d be 29 04 d7 3b 2b 50 0a be d7 f9 0b 3e
       -0.16930304 0.006561775 -0.13507144 0.13669525
000080 f7 09 8f 3e 60 d5 82 bd 52 c7 29 be ab 19 3d 3e
       0.2793729 -0.06388354 -0.16579941 0.18466823
000090 3a 11 0c be 28 be a9 bd b6 ce d4 3d c7 06 24 3c
       -0.13678446 -0.082882226 0.103909895 0.0100113815
0000a0 6c 10 11 3c 7e 28 e0 bd ab 8a 3e bd 7b 79 00 bd
       0.008854013 -0.10945223 -0.046518963 -0.031365853
0000b0 bf e5 4f be 4f 7b ff 3d c9 1b 0d 3e 42 39 62 3e
       -0.20302485 0.12474691 0.1378013 0.22092155
0000c0 27 55 d2 bc a9 93 35 be 95 83 6a be 1e 43 2f be
       -0.02567537 -0.17732109 -0.22901757 -0.17115447
0000d0 d8 01 31 3d 0b fd 7b be 9e 71 24 be 5d e6 bd bd
       0.04321465 -0.24608247 -0.16058967 -0.09272454
0000e0 54 7d f2 bd 7f a8 57 3d 44 4e 6e 3e b7 73 3c be
       -0.11840311 0.052650925 0.23272043 -0.18403517
0000f0 3b 37 d6 bd 9a 1b 61 be 8c 1d 69 3e bc 7d f6 3d
       -0.10459753 -0.21983185 0.22765177 0.12035701
000100 65 30 29 bb bc 28 8b 3e 35 06 7f 3b 91 77 42 be
       -0.00258162 0.27179515 0.0038913612 -0.18990923
000110 c3 9f a6 bd 73 eb 59 be 84 3c d3 3d 8d b1 59 bd
       -0.08135941 -0.21281223 0.10314277 -0.05314784
000120 66 5d a5 3c 24 1b a0 bd 19 50 01 3e c5 0d 46 be
       0.020186137 -0.07817677 0.12628211 -0.1934119
000130 d9 93 94 bd 3a 0c 96 bd 6d 27 68 bc 2c 80 06 be
       -0.07254762 -0.07326551 -0.014169556 -0.13134831
000140 c9 83 11 3e ed e7 15 3e f9 98 c6 bc 19 e9 2a be
       0.14210428 0.14639254 -0.024242865 -0.16690482
000150 2c 21 3a bd 08 06 97 3d 57 23 62 be 22 cb 62 be
       -0.04544179 0.07374197 -0.22083794 -0.22147802
000160 71 91 db bd 8a 4c 1a 3e 62 32 56 bd 2e ab 86 3d
       -0.107211 0.1506826 -0.052294143 0.06575619
000170 fa 86 db bd 7a 3d 3c bd ce 1a 7c 3e d4 18 c2 bd
       -0.10719104 -0.045957066 0.246196 -0.09477392
000180 3d 0e 43 be b9 73 66 3e 4e cc 53 be f9 35 8f 3c
       -0.190484 0.22505082 -0.20683405 0.01748179
000190 88 32 19 3e 3c fb 47 3e 7a 97 ee bd 89 b1 3b 3d
       0.14960682 0.19529432 -0.116499856 0.045823608
0001a0 c4 d9 6a be 80 00 e9 bd df dc 8f bc 16 e3 a9 3c
       -0.22934633 -0.113770485 -0.017561374 0.020738166
0001b0 36 90 f7 3d 0c 51 a1 3c d6 a9 1a 3d 95 5b e9 3d
       0.12088053 0.019691966 0.037759624 0.11394421
0001c0 3b b1 bb 3d 55 75 d5 bd 39 65 5f be 03 1a 5d 3d
       0.091646634 -0.1042277 -0.21815957 0.053979885
0001d0 97 a1 6f be c2 81 3f bd 3e 57 1e 3d 14 27 70 be
       -0.23401485 -0.046754606 0.03865742 -0.23452407
0001e0 9b 26 32 be fa a1 f0 3d 44 b1 f6 bd 0a 0b 1b 3e
       -0.1739754 0.117496446 -0.120455295 0.1514093
0001f0 93 be b4 3d 07 b9 46 be 3a 4c 3b bd f5 fb db 3b
       0.08825412 -0.1940652 -0.045726992 0.006713385
000200 1f 88 a7 bd b1 fe 41 3c d9 55 0e ba 79 62 0f be
       -0.0818026 0.011840508 -0.00054296624 -0.14002408
000210 76 e7 54 be ed aa 1c be 3d 3d 4b be f4 d0 36 3e
       -0.2079142 -0.15299578 -0.1984758 0.17853147
000220 24 93 3f be fd 4b 35 bd 1f 1e 00 be 2a 11 2d 3e
       -0.18708473 -0.04426192 -0.1251149 0.16901079
000230 a3 ff 21 3e be 25 83 bd c0 d3 33 3d 97 09 10 be
       0.15820174 -0.06403683 0.043903112 -0.14066158
000240 b2 a1 67 be e3 47 9c 3d ca ef ea bd c0 01 cb bd
       -0.22620276 0.07630899 -0.114715174 -0.09912443
000250 dc 5a 38 be 75 56 36 be b5 08 a0 bd 40 94 99 3d
       -0.1800341 -0.17806418 -0.07814161 0.074989796
000260 3c ca 21 be 6b 4b 27 be 8c 1f 25 bd 88 ef 9a 3d
       -0.15799803 -0.16337363 -0.04031329 0.07565218
000270 73 db ca 3d 03 88 68 3e ce 12 5d 3e 58 6a 83 3c
       0.09905138 0.22708134 0.21589205 0.01604192
000280 ba a9 1b be 5d cc 46 be 31 31 58 3e f0 32 d9 3d
       -0.15201464 -0.19413896 0.21112515 0.10605419
000290 66 6e d5 bd d3 f0 59 be 78 19 9e bd 6c 6e 64 be
       -0.104214475 -0.21283273 -0.077197015 -0.22307748
0002a0 f9 c7 f4 3d 5b 16 e5 bc 3b 2a 0f be cc 7a a3 3d
       0.11952204 -0.027964761 -0.13980953 0.07982406
0002b0 0c 8c 61 3e e0 66 d5 bc fd ab 56 3c 42 3e 79 bd
       0.2202608 -0.026050031 0.013102529 -0.06085039
0002c0 1a 82 91 3d d7 0f 69 be 8d f5 2d 3c 6b 5d 63 3e
       0.07104893 -0.22759949 0.010617626 0.22203605
0002d0 ed 89 18 be fe 22 0e be 72 71 2b 3e 91 39 83 3e
       -0.14896365 -0.13880536 0.16742495 0.25629857
0002e0 8d 70 53 bd c2 77 a6 3d 47 6e 80 3e ef 0e 4f be
       -0.05162101 0.08128311 0.25084135 -0.2022054
0002f0 e7 ff 1f be 23 d4 e5 3d 83 62 0e 3e 06 1b eb bd
       -0.15624963 0.112221025 0.13904767 -0.11479764
000300 91 6a ef 3d 81 32 7c be 23 58 a3 bd 6b 94 da bd
       0.11690248 -0.2462864 -0.07975795 -0.1067284
000310 77 f3 7a 3e a4 45 8a be 6d 1b 27 3e df d2 04 bd
       0.24506937 -0.27006257 0.16319056 -0.032427665
000320 6a 8f df bd 42 4f b4 3d 64 3c 0a bd 1a 26 ca 3c
       -0.10916026 0.0880418 -0.033749 0.024676371
000330 11 10 3b be 5c 29 3c 3d f3 34 94 bc 06 36 4f 3c
       -0.18267848 0.04593788 -0.018091654 0.012647158
000340 bd 1c e7 bc 63 22 a4 3d 4e 7c aa 3d ce 4c b4 3d
       -0.028211946 0.08014371 0.083244905 0.08803712
000350 b4 09 70 3e 2e d8 86 be 54 b4 7d 3c fc 9d 2c be
       0.23441201 -0.26336807 0.015484888 -0.16857141
000360 2c 3f e1 bd f5 3a 96 3c 88 31 b7 bd 47 ef 49 3e
       -0.10998377 0.01833866 -0.08944994 0.19720183
000370 ee 5b 66 be 7b c0 00 be be b0 68 be 9e 93 11 bd
       -0.22496006 -0.12573425 -0.22723672 -0.03554117
000380 ec dd 08 3d 6e ae 10 3e 77 2a 53 be 6a 07 44 be
       0.033414766 0.1412904 -0.20621668 -0.19143453
000390 0a 49 da 3d 7b ec 37 3e bb 2f 2f 3c 73 24 dd 3d
       0.10658462 0.17961304 0.010692532 0.10797968
0003a0 b6 15 1f be b4 12 73 3e 7b 88 62 3c 6d 8e 54 bd
       -0.15535626 0.23737603 0.013826485 -0.05189364
0003b0 fa be 3c be e7 28 a7 3d 51 33 89 bd 64 53 21 be
       -0.18432227 0.081620984 -0.06699241 -0.15754467
0003c0 46 2b 8f bd 08 e9 47 be cc 1f 68 3e 58 72 c4 3d
       -0.06990676 -0.19522488 0.2266838 0.09592122
0003d0 de 89 44 be 8a ba 19 3e 47 51 b9 bd 6e 02 b1 3c
       -0.19193217 0.15012565 -0.090487055 0.021607604
0003e0 dd e7 a8 3d 27 38 29 3e b7 8a f8 bd d7 62 34 3e
       0.082473494 0.16525327 -0.12135833 0.1761583
0003f0 82 d5 ae 3a 14 bf ac ba 7a 6d 85 3e a7 09 05 be
       0.0013338777 -0.0013179504 0.26060086 -0.12991963

2.bias f4 [32]
000000 ac 2d 10 be d4 12 f1 bd e6 74 47 3e 93 ff 7e 3d
       -0.14079922 -0.11771169 0.19478187 0.062255453
000010 99 44 76 be e5 5e 43 3d 4e fa a9 3d 9b 51 4e be
       -0.24049605 0.04769792 0.08299695 -0.20148318
000020 d2 67 70 be df 9d da 3d 6f f2 38 bd d3 0d 15 3e
       -0.23477104 0.10674643 -0.045153078 0.14556055
000030 93 ac 45 be 25 a9 4f 3e ed 35 0c be 30 63 87 bd
       -0.19304113 0.20279367 -0.13692446 -0.066107154
000040 e0 7f d7 3b c8 47 ae bd f3 bc 15 bd d5 94 64 3e
       0.006576523 -0.08509785 -0.03655715 0.223224
000050 52 39 88 bd bf 09 0d be d8 fb 6d 3e 89 39 d3 bd
       -0.06651558 -0.13773249 0.23240602 -0.10313708
000060 9d aa 1c be 15 d0 44 3e 93 20 6f 3e 67 5f 5c bb
       -0.15299459 0.19220002 0.2335227 -0.00336262
000070 47 1d 6e 3c e1 c5 2c bd 8b 78 fe 3d 4b 53 bb 3c
       0.014533347 -0.0421809 0.124253355 0.022866866
