weights/shared_weights.pth (torch, 4616 bytes, 4 tensors)

0.weight f4 [16, 4]
00000000: 02d4 d8bc b67e a4be 3b66 57bc 1348 a63e
00000010: 82ef 863e d536 91be 1a4a 8e3e b61d a6bd
00000020: 2f15 973e 0b99 f13e 1b8a fb3e 2663 453e
00000030: eea7 8b3e bc4a 2f3e d89a 85bd e7e1 f63e
00000040: daed adbe bdb7 ff3e 0de6 90be 2fdd 39be
00000050: a7c5 c1be c860 b0be cd15 863e edf0 99be
00000060: 50b8 ec39 31fd 223e e705 1bbe 5392 d3bc
00000070: 4c26 5bbe 803b ae3e 69a2 2f3e b34d cabe
00000080: 4081 6dbd f51d 863e e803 9f3e bcac f53e
00000090: 2979 bcbe 9934 2cbe 804b f8be 08c6 cdbe
000000a0: 248e f2be e297 d2bd 5d8d 9d3e 9c5e a03e
000000b0: eb0a d03e 1dcb ce3e c517 80be b20e 1bbc
000000c0: 5821 eabe 6b3b 583e b412 c1bd bb73 e23e
000000d0: c84e 50be 9f6a 5abd 725c f8be a388 6a3e
000000e0: 5ef7 11be 4f56 7d3c 51a2 b4bc 71ce 32be
000000f0: 1212 5d3e 0f00 e0be 8b16 8bbe 3d09 9f3d
-0.02646828 -0.32127923 -0.013146932 0.32476863 0.26354605 -0.28362146 0.2779091 -0.08111136
0.2950835 0.47187075 0.49128804 0.19276103 0.27276558 0.17118353 -0.06523675 0.48219225
-0.3397053 0.4994487 -0.28300515 -0.18150781 -0.3784611 -0.34448838 0.26188508 -0.30066624
0.0004515075 0.15916897 -0.1513897 -0.025826609 -0.21401328 0.3402977 0.17151798 -0.39512405
-0.05798459 0.2619473 0.31057668 0.47983348 -0.36811188 -0.1681694 -0.48495102 -0.40190148
-0.4737407 -0.102828756 0.30771914 0.3132218 0.4063333 0.40389338 -0.25018135 -0.009463953
-0.45728564 0.21116416 -0.094273955 0.4422892 -0.20342553 -0.053324338 -0.4850803 0.22903685
-0.1425452 0.015462472 -0.022050055 -0.17461564 0.21588925 -0.43750045 -0.27165636 0.07765434

0.bias f4 [16]
00000000: a4a4 d6be f214 b7bd e1bb ba3e 20c0 163e
00000010: 10ea cebe f6b9 e3be c3dd bfbe 678b 8abe
00000020: 9731 c33e b99a a33e 8406 4c3d 2132 a33e
00000030: f7a2 9a3e 4b96 5f3e 5156 523d 9bb5 e3be
-0.41922486 -0.08939542 0.36471465 0.14721727 -0.4041295 -0.44477814 -0.37473878 -0.2705948
0.38123772 0.31953982 0.0498109 0.31874183 0.30202457 0.21834676 0.05135185 -0.4447449

2.weight f4 [32, 16]
00000000: c943 6ebe 61d1 793e 5216 1a3e f9b4 2dbe
00000010: a5d7 2f3e a5fe 1e3e 8b8e 54bd baed 82be
00000020: 02aa 0cbe d063 49be 2a11 56bd 18ab 4e3e
00000030: 9624 83bc d523 86bd 926d 05be 8047 0a3e
00000040: a152 3ebd 64f3 803c 07f4 febd 700a 01bd
00000050: 0096 f63c 3385 cfbd 2470 7f3c 6de7 023e
00000060: 97b7 2f3e 83f6 943c 5071 6bbc 4960 463e
00000070: 4a23 35be 3c41 bc3c 8c7f 11be f942 1a3e
00000080: 25f3 873e d21a 99bd 37d5 1cbe be11 483e
00000090: 612a 04be 8d95 bfbd b8d3 e33d e008 ae3c
000000a0: 3f87 ad3c 76fa fbbd ff21 75bd 6422 a4bc
000000b0: 9dd4 47be c0ad dd3d dd67 113e 253b 533e
000000c0: 43bd b5bc a487 30be 5afe 6bbe bb81 2ebe
000000d0: 2971 0d3d 164c 7ebe cd20 2dbe 07dd d4bd
000000e0: 25c6 f5bd dbdc 6d3d 3a32 713e fed9 3bbe
000000f0: e070 dbbd 4a55 53be 4378 5c3e cafe 003e
00000100: 3fcf 5dbc 09be 863e 4ea8 513c 70f5 3bbe
00000110: 2be1 96bd 357b 60be 5bf4 e13d ae8b 2cbd
00000120: d804 ef3c 8d48 b6bd 5bc0 ee3d 16ed 3ebe
00000130: a2e0 88bd b022 b6bd 02ae d2bb aa62 13be
00000140: 5133 193e 1fb4 1c3e f0be eebc dff0 2cbe
00000150: d28f 55bd 87c2 993d 9e9d 68be 64e3 6dbe
00000160: 9cab e5bd e2d7 243e 9317 3fbd d4ea 813d
00000170: 46fd dfbd a51c fcbc d68c 743e fc43 adbd
00000180: 288c 4fbe 6858 623e 8be7 45be 5dec f93c
00000190: f864 163e e889 393e 020b f5bd 1e98 363d
000001a0: 19e7 5ebe 2d8f fbbd e832 f6bc 7217 0e3d
000001b0: f425 013e de5d 903c 9a71 ad3c f8e4 d43d
000001c0: dabe 9b3d fae6 e8bd 4153 50be c086 883d
000001d0: 91d2 6cbe 5fe8 75bd c281 283d c987 69be
000001e0: c75a 24be ad97 d33d f0c2 0abe 8d52 293e
000001f0: 127c c33d a093 55be 87e1 4bbd 89d9 0fbc
00000200: 6a6c 9ebd 0b14 403c a294 eebb c342 17be
00000210: 0b0f 4fbe 550d 14be c7a9 45be d962 3d3e
00000220: ca9b 45be d2ac 2cbd cf87 f5bd cd4d 253e
00000230: 822e 203e 1587 91bd 6ade 773d 505d 0dbe
00000240: de4b 63be c242 9c3d 1be7 f8bd 0558 dabd
00000250: d3b7 32be 62f6 2dbe cc2b 95bd 53cc a53d
00000260: 39b4 27be a912 25be f3af 0fbd 628f 8b3d
00000270: 4a12 c73d 491d 623e f4a4 6e3e 2ac1 9a3c
00000280: 26a4 1dbe 2869 4bbe 7bd8 573e 8da9 d43d
00000290: b890 c5bd 6699 56be aaf6 8ebd 611c 5abe
000002a0: a3cd f43d 77dd 03bd 1b06 10be 9dae 9e3d
000002b0: f3d7 623e 933b 20bd dc00 cd3c a3d8 84bd
000002c0: cb77 823d ff7e 6abe 103f a73c baf4 6d3e
000002d0: 4c9c 1ebe afdf 19be a6e6 253e fe94 803e
000002e0: cf89 31bd ef4d 9d3d 2bba 783e 117e 44be
000002f0: dc0a 1dbe 7318 f03d d358 f83d 0e8b f6bd
00000300: 9d5c 073e d6c2 70be ca12 c1bd 97a1 f3bd
00000310: 64a0 723e fe18 84be 7046 1f3e 5b04 34bd
00000320: 15cf fbbd 792d d23d 6c71 9fbc 02bf 3f3c
00000330: 58cb 44be 1842 803d 2cdb a4bc 8a63 e73c
00000340: 8efc 63bc 6e1a b13d 5121 8b3d c9e2 973d
00000350: 90ce 703e 2275 7ebe c027 853c b877 2ebe
00000360: 456a fdbd 1f26 f23c 9bef 99bd 5eba 3a3e
00000370: f105 6dbe 3b38 f4bd 7cd0 5abe 2e60 b9bc
00000380: ef20 8c3c be60 0a3e 33a6 42be 2e95 35be
00000390: 5c95 d53d a8ae 283e 50e2 fd3b b813 e13d
000003a0: 40fc 0fbe 157a 653e 1f5d 03bb feb0 15bd
000003b0: 284a 38be d768 903d 4f9c 9cbd aa90 31be
000003c0: d66e 62bd 69ea 3cbe c1a4 5a3e f53e ae3d
000003d0: 5954 4cbe a362 253e fe5f c7bd 4bac 323c
000003e0: 423d 8f3d 47bb 373e 01bd dcbd 3559 283e
000003f0: 4d3f e6bb 5b59 7b3c 0762 843e 0550 ebbd
-0.23268045 0.24396278 0.15047577 -0.16963567 0.17172106 0.15526827 -0.051893752 -0.25571996
-0.13736728 -0.19666982 -0.052262463 0.20182455 -0.016008656 -0.06549803 -0.13030079 0.13503838
-0.04646552 0.015741058 -0.12448888 -0.031504095 0.030100822 -0.101328276 0.015590701 0.12783594
0.17159878 0.018183952 -0.0143702775 0.19372667 -0.17689243 0.022980325 -0.14208812 0.1506461
0.26552692 -0.07475819 -0.1531571 0.19538018 -0.12906791 -0.093546964 0.111243665 0.021244466
0.021182654 -0.12303631 -0.059846874 -0.02003593 -0.195147 0.10824156 0.14199777 0.2062803
-0.022184974 -0.17239243 -0.23046246 -0.17041676 0.034531746 -0.24833712 -0.16907044 -0.1039372
-0.12000684 0.058071952 0.23554316 -0.18344876 -0.107148886 -0.20638004 0.21530251 0.12597194
-0.013538181 0.2631686 0.012796475 -0.18355346 -0.07367166 -0.21922 0.11032935 -0.042125396
0.029177114 -0.08900557 0.11657783 -0.18645129 -0.0668347 -0.08893335 -0.0064294348 -0.14393106
0.14960982 0.15303086 -0.02914378 -0.1688876 -0.05213911 0.07507806 -0.22716376 -0.23231274
-0.112143725 0.16097978 -0.04665334 0.06343618 -0.1093698 -0.030775378 0.2388185 -0.084602326
-0.20268309 0.22104037 -0.19326608 0.030508215 0.14686954 0.18119013 -0.1196499 0.044578664
-0.21767844 -0.12283168 -0.03005357 0.034690328 0.12612134 0.017622884 0.021172334 0.10395235
0.076047614 -0.1137218 -0.20344259 0.066663265 -0.231272 -0.06003606 0.04113937 -0.22805704
-0.16050254 0.10331664 -0.13550925 0.16535397 0.09545149 -0.20857096 -0.049775627 -0.008779892
-0.07735522 0.011723529 -0.007280902 -0.14771561 -0.20220582 -0.14458211 -0.19303046 0.18494739
-0.1929771 -0.042157 -0.11988794 0.1614296 0.15642741 -0.07105843 0.060514845 -0.13805127
-0.2219691 0.076299205 -0.12153455 -0.1066132 -0.17452936 -0.16988519 -0.07283744 0.080956124
-0.16377343 -0.161204 -0.035079908 0.068144575 0.09720285 0.22081484 0.23305112 0.018890936
-0.15394649 -0.19864333 0.21078674 0.10383902 -0.096467435 -0.20956954 -0.06980641 -0.21299888
0.119532846 -0.032193627 -0.14064829 0.077481486 0.2215269 -0.039119314 0.025024824 -0.06486633
0.06370505 -0.22900008 0.020415813 0.23237887 -0.1548931 -0.15026735 0.16201267 0.25113672
-0.043344315 0.0768088 0.24289767 -0.19188716 -0.15336174 0.11723413 0.12126317 -0.12038241
0.13218923 -0.23511824 -0.09427412 -0.11896055 0.23693997 -0.25800318 0.15554214 -0.043949466
-0.12295357 0.102625795 -0.019463263 0.011703255 -0.19218194 0.062626064 -0.02012404 0.028245706
-0.013915194 0.08647619 0.06793464 0.07416303 0.23516297 -0.2484937 0.016254306 -0.17037857
-0.12373785 0.029559193 -0.07516404 0.18235156 -0.23146798 -0.119247876 -0.21368593 -0.02262887
0.017105548 0.13513467 -0.19008712 -0.17732689 0.10428879 0.16472876 0.007747926 0.10990089
-0.1406107 0.22409852 -0.0020044518 -0.036545746 -0.17997038 0.070512466 -0.07647001 -0.17340341
-0.055281483 -0.18448795 0.21351911 0.08508102 -0.19954051 0.16150908 -0.09735106 0.010905336
0.06994106 0.17942534 -0.10778237 0.1644028 -0.007026589 0.015341128 0.2585604 -0.11489872

2.bias f4 [32]
00000000: a638 1dbe 3099 00be 8bed 513e 4e72 863d
00000010: 7b2b 71be 38da 3f3d 8420 ca3d ed05 41be
00000020: 1410 7bbe be74 c63d 6660 4bbd 5451 223e
00000030: a248 52be 4070 3f3e 7597 f9bd e4a0 9dbd
00000040: 4bdc a73c d805 a8bd d3ea 16bd 4c42 583e
00000050: aad4 5ebd 70f5 00be 9dcf 623e eae3 b2bd
00000060: 46de 18be 86f1 3f3e 7c7e 6c3e 19a8 87bb
00000070: ab77 7c3c ca16 ccbc 546f 093e b9f6 073d
-0.15353641 -0.12558436 0.20500772 0.06564771 -0.23551743 0.04683897 0.09869483 -0.18849917
-0.24517852 0.096902356 -0.04965248 0.15851337 -0.2053552 0.18695164 -0.12187091 -0.07696703
0.020490786 -0.082042396 -0.03684504 0.2111904 -0.05440203 -0.12593627 0.2214951 -0.087348774
-0.1492854 0.18744478 0.23095125 -0.004139912 0.01540939 -0.02491321 0.13421375 0.033194277
