weights/shared_weights_2.pth (torch, 4632 bytes, 4 tensors)

0.weight f4 [16, 4]
000000 d5 5f a9 bc 83 eb 9f be 47 e0 9c bc 20 d7 aa 3e
       -0.02067558 -0.3123437 -0.019149913 0.33367252
000010 b6 ff 88 3e 11 ea 93 be 10 6b 8a 3e cc 3e 91 bd
       0.26757592 -0.28889516 0.27034807 -0.07092056
000020 d9 87 9c 3e ee 3b fc 3e 6e b4 f6 3e b3 fe 50 3e
       0.30572394 0.49264473 0.48184532 0.2040966
000030 71 c6 87 3e e2 fe 31 3e da 5e 80 bd 27 0e f1 3e
       0.26518586 0.17382386 -0.062680915 0.4708111
000040 2f 1c b2 be ac 8d ff 3e 0e 97 8b be 4d 7c 45 be
       -0.34787127 0.49912775 -0.27263683 -0.19285698
000050 02 1f c7 be e7 5f b2 be 66 29 85 3e 1d 73 9c be
       -0.38890845 -0.34838793 0.26008147 -0.30556574
000060 09 c7 ba 3a 9b e0 1d 3e 4c 07 22 be 40 1b 7b bc
       0.0014249991 0.15417711 -0.15823096 -0.015326321
000070 9c 70 65 be 25 ca ac 3e 0a fb 32 3e 78 d4 cf be
       -0.22406238 0.33747974 0.17478576 -0.40591788
000080 5a 25 57 bd 77 b2 89 3e 2f 9f a0 3e 4a 7a f4 3e
       -0.052525856 0.2689397 0.31371447 0.4774955
000090 4a 99 c0 be 20 d7 29 be 93 ef f3 be aa 8b d4 be
       -0.3761695 -0.1658597 -0.47643718 -0.41512805
0000a0 92 2c ee be 83 53 c8 bd 6c 7d 9c 3e 3a 89 a2 3e
       -0.4651838 -0.097815536 0.3056444 0.3174532
0000b0 27 55 d2 3e ed a1 cd 3e 7b b7 7d be 4d de 35 bc
       0.4108059 0.40162602 -0.24777023 -0.011100364
0000c0 fd 18 eb be e7 18 4f 3e da 3a ce bd 9e 53 e6 3e
       -0.45917502 0.20224343 -0.10069819 0.4498567
0000d0 75 63 4e be db 21 6f bd 32 a4 fb be 07 e9 75 3e
       -0.20155127 -0.058381896 -0.4914871 0.24014674
0000e0 74 81 11 be fa 47 3a 3c 1d 59 f2 bc f3 ed 26 be
       -0.14209539 0.0113697 -0.029583508 -0.16301708
0000f0 88 fc 5d 3e b3 0e db be 2f a1 8d be 82 1e ab 3d
       0.21678364 -0.42784652 -0.27662036 0.08355428

0.bias f4 [16]
000000 30 ff d2 be 2e 65 ac bd 02 56 c0 3e 51 f5 0e 3e
       -0.41210318 -0.08417736 0.3756562 0.13960768
000010 c0 b1 d3 be d4 8e e8 be cb bd be be 34 ee 8f be
       -0.4134655 -0.4542147 -0.37254176 -0.28111422
000020 ec 58 c5 3e e7 f5 9e 3e 9f 59 6c 3d d8 15 a5 3e
       0.38544405 0.31046984 0.057702657 0.32243228
000030 41 c5 99 3e 25 e5 61 3e 6c cf 56 3d a0 92 e2 be
       0.30033305 0.22060068 0.052443907 -0.4425249

2.weight f4 [32, 16]
000000 81 2c 73 be c1 c2 79 3e ab 35 21 3e a0 dc 25 be
       -0.23747446 0.24390699 0.15743129 -0.16197443
000010 8a 22 2a 3e 2c 47 16 3e 86 0f 69 bd a1 8b 85 be
       0.16614738 0.14675587 -0.05689957 -0.2608309
000020 48 7b 06 be d0 4f 4c be d1 ac 6d bd 5c 6f 56 3e
       -0.13132966 -0.19952321 -0.05802614 0.20940918
000030 40 14 69 bc 20 19 77 bd f2 39 14 be 9f c5 06 3e
       -0.014226019 -0.060326695 -0.1447523 0.13161324
000040 08 e1 58 bd f0 e0 11 3c de a4 f3 bd 92 5a de bc
       -0.05294898 0.008903727 -0.1189668 -0.027142797
000050 a2 93 17 3d 8c 17 d7 bd d9 88 b6 3c eb 3b 0b 3e
       0.037006028 -0.10502538 0.02228205 0.13597076
000060 cf 34 35 3e b0 fa 30 3c ba eb a5 bc ba ac 4a 3e
       0.17695926 0.010801956 -0.020254005 0.19792452
000070 3d 60 2f be 99 f5 65 3c 90 bd 0c be c4 83 12 3e
       -0.17126556 0.014035606 -0.13744187 0.14308077
000080 46 ab 8b 3e d5 7d 8a bd cc 8b 23 be c9 0b 42 3e
       0.2727911 -0.06762282 -0.15971297 0.18949808
000090 0c 74 0a be de a2 b4 bd 9b 43 d7 3d a3 f7 5d 3c
       -0.13520831 -0.08820127 0.105109416 0.013547811
0000a0 33 bf 6e 3c 43 5b eb bd d5 52 58 bd da ea d2 bc
       0.014571953 -0.11492016 -0.05281337 -0.025746752
0000b0 de d5 4d be 9e fe ee 3d f1 f4 0e 3e bd 60 5b 3e
       -0.20101115 0.11669658 0.13960625 0.21423621
0000c0 e3 65 bc bc 8f 2a 35 be 4e 17 6d be 5e 0c 31 be
       -0.022997802 -0.17692016 -0.23153421 -0.17289874
0000d0 c9 d0 2d 3d 24 86 7a be 09 23 25 be f1 4c c2 bd
       0.04243544 -0.24465233 -0.16126646 -0.09487332
0000e0 7b df f6 bd d5 c6 60 3d 83 32 71 3e e2 71 3e be
       -0.12054344 0.05487712 0.23554425 -0.1859813
0000f0 df f8 d5 bd da 64 5c be 01 38 66 3e 22 fa fb 3d
       -0.10447859 -0.21522847 0.22482301 0.123035684
000100 c7 f4 08 bc f9 ef 89 3e 47 83 14 3c 08 99 3e be
       -0.008359141 0.26940897 0.009064502 -0.18613064
000110 ee ea a4 bd 69 3e 5e be df 28 d4 3d 70 1b 4e bd
       -0.08052622 -0.21703495 0.10359358 -0.050319135
000120 21 f5 cd 3c 5f 54 a9 bd 72 cc f7 3d a6 82 41 be
       0.0251413 -0.08268046 0.12099542 -0.18897495
000130 30 b3 92 bd 09 7b a4 bd c1 63 44 bc 50 b7 0c be
       -0.071630836 -0.080312796 -0.011986674 -0.13741803
000140 78 78 16 3e f2 2a 17 3e 79 33 e7 bc c3 99 2d be
       0.14694393 0.14762476 -0.028222786 -0.16953187
000150 94 65 3b bd 38 58 9c 3d 21 1e 62 be 6b 53 65 be
       -0.04575117 0.07634014 -0.22081806 -0.22395103
000160 9d 97 e3 bd 7f d2 1e 3e 11 52 45 bd 0f 7c 80 3d
       -0.11112902 0.15509985 -0.048173968 0.06273662
000170 72 4d da bd f7 07 20 bd 32 5a 7a 3e 50 dc b6 bd
       -0.10659303 -0.039070096 0.2444847 -0.0892874
000180 0b 27 48 be f7 06 64 3e 2e c0 4e be bf 81 b1 3c
       -0.19546144 0.22268282 -0.20190498 0.021668313
000190 c7 a1 19 3e 49 0d 43 3e ee e3 ee bd 8b 71 41 3d
       0.1500312 0.19048037 -0.11664568 0.047227424
0001a0 72 91 66 be 80 dc ef bd b7 db b6 bc 0e 53 d2 3c
       -0.2251642 -0.11711979 -0.022321565 0.02567437
0001b0 d6 75 fb 3d ea 71 85 3c 14 0f 0e 3d 93 60 e0 3d
       0.12278335 0.01628967 0.03468235 0.1095592
0001c0 86 f5 ac 3d 88 2b dd bd 40 ca 58 be 6b b1 71 3d
       0.084452674 -0.107993186 -0.21170902 0.05900709
0001d0 53 2d 6f be 6e 70 57 bd ba 66 1e 3d 52 92 6d be
       -0.23357134 -0.052597456 0.038672186 -0.23200348
0001e0 38 61 2c be bc 2c e5 3d e3 45 02 be 3d 69 21 3e
       -0.16833961 0.11190173 -0.12721972 0.15762801
0001f0 81 81 b8 3d ff e3 4e be 2d 61 3d bd ba 80 76 b9
       0.09009076 -0.20204161 -0.046235252 -0.00023508343
000200 00 90 a4 bd 26 ec 56 3c ce 7e 0b bb 7d 28 11 be
       -0.08035278 0.013117826 -0.0021285298 -0.14175601
000210 7d 23 55 be 09 e3 1a be 70 58 4b be 24 ec 36 3e
       -0.20814319 -0.1512567 -0.19857955 0.17863518
000220 f4 37 41 be dd 70 31 bd d2 76 fd bd 07 5f 2b 3e
       -0.18869 -0.043320525 -0.12376179 0.16735469
000230 26 8d 20 3e 78 8e 84 bd a3 ec 41 3d d8 b4 0e be
       0.15678844 -0.06472486 0.047344815 -0.13936174
000240 cf 5b 66 be c7 c4 9e 3d a1 07 ee bd e0 44 ce bd
       -0.2249596 0.07752376 -0.11622549 -0.100717306
000250 5a 9f 38 be ba ba 34 be 8e 45 a0 bd f5 9e 99 3d
       -0.18029538 -0.17649356 -0.078257665 0.07501022
000260 ab 4d 23 be ab 6b 26 be 9f 02 20 bd c2 c6 97 3d
       -0.15947597 -0.1625201 -0.039065 0.07410957
000270 9e 0e c8 3d 9e 02 68 3e a6 c4 60 3e c4 ae 8d 3c
       0.09768413 0.22657248 0.21950015 0.017295249
000280 48 c9 1d be 9a da 46 be 49 07 5a 3e 97 21 dc 3d
       -0.15408814 -0.19419327 0.21291842 0.10748594
000290 b3 d8 d4 bd fd 01 5b be ad c0 9d bd 41 f2 62 be
       -0.103928946 -0.21387477 -0.077027656 -0.22162725
0002a0 a0 57 f8 3d 6b 57 f5 bc 4d 13 11 be 9e 04 a6 3d
       0.12126088 -0.02994891 -0.14167519 0.081063494
0002b0 04 c6 60 3e 82 07 f9 bc 3f 5b 7d 3c 93 03 81 bd
       0.21950537 -0.030399088 0.015463649 -0.0629951
0002c0 d1 97 8c 3d 6c cd 6a be 5c aa 58 3c f4 ec 65 3e
       0.06864894 -0.22929925 0.013224211 0.22453672
0002d0 6b 7c 18 be 29 fc 10 be 77 64 2b 3e 77 6a 83 3e
       -0.14891212 -0.14158691 0.16737543 0.25667164
0002e0 6c 01 4a bd 48 3f a3 3d 4f 97 7e 3e 89 6e 4c be
       -0.049317762 0.07971054 0.24862407 -0.19964041
0002f0 5b 65 1e be 20 5a e5 3d 27 cd 0a 3e 4c bf ef bd
       -0.15468352 0.111988306 0.13554822 -0.11706409
000300 04 a4 fd 3d 39 dd 77 be c4 cc b0 bd bf 62 e5 bd
       0.12384799 -0.24205483 -0.08632806 -0.11200475
000310 8a 79 78 3e bf 62 87 be 52 13 25 3e 46 6d 16 bd
       0.24265113 -0.26442525 0.16120651 -0.036725305
000320 1d 2a ec bd 3c 74 c0 3d a3 05 df bc 00 a6 98 3c
       -0.1153147 0.0939717 -0.027224367 0.018633842
000330 8c 18 3e be 49 bf 5e 3d cd f6 a1 bc 78 a4 a0 3c
       -0.18564051 0.054381642 -0.019771004 0.019609675
000340 78 8b b5 bc be 2b a9 3d 9e 32 9e 3d f8 8c aa 3d
       -0.02216123 0.08260296 0.07724498 0.08327669
000350 4e 79 6f 3e 8c ff 83 be 29 24 7c 3c a7 93 2e be
       0.23386118 -0.25780904 0.015389481 -0.17048512
000360 50 d1 eb bd ae 0b b8 3c e9 42 ab bd db 14 44 3e
       -0.115145326 0.022466507 -0.083623715 0.1914858
000370 f5 e4 67 be 2d 89 f6 bd e9 f2 65 be c5 94 f5 bc
       -0.22645934 -0.12037883 -0.22455944 -0.029978165
000380 8a 9b d3 3c 7b 38 0e 3e 10 eb 4b be b5 67 3e be
       0.025831003 0.13888733 -0.19913888 -0.18594249
000390 c1 66 d7 3d f5 4f 31 3e 6b c8 0c 3c 59 8c df 3d
       0.105176456 0.17315657 0.008592705 0.10915441
0003a0 f4 c8 18 be ed 15 6e 3e 65 5c dc 3b 3c d2 38 bd
       -0.14920408 0.23250552 0.0067248815 -0.04512237
0003b0 40 51 3c be de 0e 99 3d 55 fa 8d bd b5 d5 28 be
       -0.1839037 0.07473539 -0.06932513 -0.16487773
0003c0 0d 2a 81 bd ee ee 43 be 28 d2 61 3e 11 b4 ba 3d
       -0.06306849 -0.19134113 0.22052824 0.09116376
0003d0 81 48 46 be a7 5e 1f 3e 75 b7 bb bd 66 82 94 3c
       -0.19363596 0.15563451 -0.09165851 0.018128585
0003e0 a9 63 9d 3d df 15 2f 3e 27 93 eb bd 0b 8c 2e 3e
       0.07685024 0.17098187 -0.115026765 0.1704561
0003f0 18 25 82 ba f8 f1 e9 3b a6 ed 84 3e 0f 59 fc bd
       -0.0009929268 0.0071394406 0.2596256 -0.12321674

2.bias f4 [32]
000000 cb 6a 13 be 4b 20 fb bd b1 25 4d 3e b1 82 7a 3d
       -0.14396207 -0.12262019 0.2003391 0.061159793
000010 a6 1c 72 be 71 84 38 3d cb 41 b5 3d 62 15 48 be
       -0.23643741 0.04504818 0.0885044 -0.19539407
000020 b1 b1 72 be 6d b7 d6 3d f6 6b 36 bd bf 53 18 3e
       -0.23700596 0.104842044 -0.044536553 0.14875697
000030 d1 e5 4b be 82 55 49 3e 00 1f 05 be 63 18 93 bd
       -0.19911887 0.19661525 -0.13000107 -0.07182386
000040 d5 9f 32 3c 77 13 b0 bd 13 54 21 bd 49 2c 61 3e
       0.010902365 -0.085974626 -0.03938682 0.2198955
000050 4c 19 82 bd 85 4c 0a be 71 1a 68 3e 91 90 c7 bd
       -0.06352481 -0.13505752 0.22666337 -0.09744371
000060 f0 4d 1d be a6 b0 40 3e a1 d8 6b 3e 9c f7 c4 bb
       -0.15361762 0.18817386 0.23031856 -0.0060109627
000070 3b 79 8d 3c 53 7e 17 bd fa 4a 00 3e 4d 11 cb 3c
       0.017269721 -0.036985707 0.12528601 0.024788523
