weights/shared_weights_6v2_mujoco.pth (torch, 4768 bytes, 4 tensors)

0.weight f4 [16, 4]
-0.11885355 0.56040883 -0.01195113 0.59311944 -0.32212365 -0.54693216 -0.10514543 -0.6003979
0.11020893 0.23061283 -0.21537906 0.46285126 -0.19145542 0.33178532 -0.28962854 -0.25185147
0.44925925 -0.57307476 -0.11114619 -0.13545898 0.31869614 -0.626022 -0.46685615 -0.052512858
0.39207992 0.06051896 0.14391395 0.36137563 -0.06802912 -0.5017984 -0.24698451 -0.5776475
0.047014844 0.78094745 0.22101514 0.23386331 0.34576842 0.8325664 -0.36389375 0.2554704
-0.35759714 -0.26300558 -0.2690564 -0.5171456 0.33118922 -0.276876 0.11204659 -0.3371362
-0.19840813 -0.30027628 -0.34009635 -0.34001732 -0.49463144 0.29767865 0.47904485 0.40971035
0.08176715 -0.5292797 0.23687871 -0.49013126 0.13133839 0.721715 -0.35327613 0.14767656
00000000: 7d69 f3bd f476 0f3f acce 43bc add6 173f
00000010: 64ed a4be bf03 0cbf 7d56 d7bd adb3 19bf
00000020: 38b5 e13d c525 6c3e 548c 5cbe d7fa ec3e
00000030: e40c 44be c4df a93e 314a 94be adf2 80be
00000040: 4f05 e63e 07b5 12bf 9da0 e3bd c2b5 0abe
00000050: 242c a33e fa42 20bf c507 efbe b917 57bd
00000060: b3be c83e bbe2 773d 2e5e 133e 3a06 b93e
00000070: da52 8bbd dc75 00bf 82e9 7cbe b5e0 13bf
00000080: a392 403d 2cec 473f cb51 623e dd79 6f3e
00000090: 8f08 b13e 1223 553f 4850 babe 04cd 823e
000000a0: f916 b7be aba8 86be c3c1 89be a763 04bf
000000b0: a291 a93e b1c2 8dbe af78 e53d 1e9d acbe
000000c0: 802b 4bbe d0bd 99be 1c21 aebe c016 aebe
000000d0: 5540 fdbe 5669 983e 5e45 f53e 8ec5 d13e
000000e0: 8975 a73d e07e 07bf 5590 723e 7cf2 fabe
000000f0: 927d 063e 50c2 383f 9ce0 b4be 8638 173e

0.bias f4 [16]
0.37590778 -0.34556952 -0.38646495 0.26702422 0.3725847 -0.41385823 -0.45060083 -0.22786236
0.06560162 -0.1707387 -0.010922587 -0.35234573 -0.109997645 -0.39418113 -0.0009970436 0.2321579
00000000: fc76 c03e 7dee b0be bcde c5be 66b7 883e
00000010: 6cc3 be3e 3ae5 d3be 27b5 e6be c054 69be
00000020: 245a 863d 20d6 2ebe a6f4 32bc a966 b4be
00000030: 7246 e1bd 1cd2 c9be 3baf 82ba cdba 6d3e

2.weight f4 [32, 16]
0.03296429 0.3121744 0.15517733 -0.13557531 -0.011811928 -0.042035945 -0.23528378 0.031025657
-0.036646876 -0.27676192 0.06484496 0.10043553 -0.0016720127 -0.15779544 -0.08179075 -0.13345094
0.2841929 -0.27033117 0.018042997 -0.07770991 0.014115771 -0.27510753 0.033978686 -0.19378103
0.0989946 0.27414033 -0.15457748 0.097802944 -0.23276123 0.28203732 0.013148092 0.0252206
-0.01873538 0.03870024 -0.25454685 0.20849723 -0.027327118 0.010585159 0.20136805 0.30901828
-0.10577082 -0.11512665 0.36653978 -0.13230146 -0.08239074 -0.19344543 0.27189985 -0.1865884
0.23937707 -0.21743129 -0.14561097 0.1788694 0.1005117 -0.26301396 -0.22591257 -0.012760081
0.02778791 -0.105133474 -0.0552788 -0.08858598 -0.004568035 -0.06497541 -0.11054067 0.13183892
0.15385467 0.28322867 -0.11307573 -0.05149779 -0.07691086 -0.038019724 -0.1517797 0.15474075
-0.1506582 0.27108827 0.09509763 0.23800725 0.07212903 0.2871393 -0.27061915 -0.22387058
-0.23031808 0.18714878 -0.20291515 0.16665578 -0.08972455 0.15392603 0.15687533 -0.078349784
-0.38667488 -0.3569189 0.16347022 0.030102337 -0.09795568 0.096174106 0.016253885 -0.16652864
0.28689924 -0.071563825 0.026859667 0.14415836 -0.25905082 0.02639496 0.2508378 -0.21130739
0.35876754 0.19424514 -0.13307759 -0.15756564 -0.3413047 -0.10908916 0.035527065 0.31820083
0.23320289 -0.08970874 0.21078913 -0.058518313 -0.13096294 -0.19375752 0.23681056 0.0038920552
0.2724101 0.033874657 -0.026781699 -0.2326468 -0.3140756 0.2954219 0.022103714 0.0007137326
0.10912729 0.3038186 0.04654393 0.10864679 0.29005677 0.09482106 -0.17055048 0.15760422
-0.46210986 -0.2220194 -0.045807224 0.2138608 0.14158796 -0.23964618 -0.004045883 0.10287543
-0.14486675 -0.008466094 -0.28665754 0.15366207 0.032329272 -0.033422463 0.040490985 -0.15651047
0.26310435 0.13645358 0.007357236 -0.13606642 0.022868855 0.052118603 -0.17365439 0.12725696
0.251364 -0.174534 -0.044896845 0.17925975 0.20752312 -0.09234778 0.04741001 -0.34729612
0.21020958 0.16684462 -0.33849436 0.03522384 -0.22120728 0.04879634 0.1433638 -0.079239264
0.3053149 -0.3206071 -0.013319344 0.07921623 0.12918659 -0.1523113 -0.055775963 -0.18821827
0.057230193 -0.082493804 -0.22879985 -0.22570062 -0.35571954 -0.0324774 -0.248678 -0.12505543
0.26532713 -0.3103882 -0.0077679763 -0.042866018 0.14508787 -0.1458899 -0.038824834 -0.29093754
0.31657484 0.31759626 -0.29779893 -0.18757553 -0.072535954 0.08874345 0.09110746 -0.16095673
-0.328621 0.20592633 -0.13285172 0.19446912 0.10325674 0.17293064 0.009760086 0.14015879
-0.4969175 -0.09385811 0.12308024 0.27826878 0.26925966 0.1517361 0.25187606 -0.1212974
-0.16104627 0.05321084 0.15771337 0.17865555 -0.018769661 -0.0844651 -0.1382411 0.05582071
0.0027032967 0.1250832 0.10927596 -0.089464635 0.11827059 -0.08332284 0.031674072 0.026616413
0.07012624 0.071724445 -0.0712626 -0.23214562 -0.18305741 -0.2645871 0.19585618 -0.043049417
0.40553528 0.12929006 -0.041703552 -0.244682 -0.2802561 0.3127017 -0.35298485 -0.06834154
00000000: 9005 073d 53d5 9f3e cee6 1e3e 41d4 0abe
00000010: d186 41bc e22d 2cbd 3bee 70be 8529 fe3c
00000020: 091b 16bd bdb3 8dbe 6fcd 843d 25b1 cd3d
00000030: 7027 dbba 2195 21be e981 a7bd 5da7 08be
00000040: bb81 913e d968 8abe e8ce 933c 6026 9fbd
00000050: d645 673c e5da 8cbe 3c2d 0b3d 896e 46be
00000060: aebd ca3d 1f5c 8c3e 8f49 1ebe e94c c83d
00000070: f658 6ebe 3267 903e 186b 573c 6f9b ce3c
00000080: f17a 99bc 2584 1e3d f753 82be 4c80 553e
00000090: 1fdd dfbc 606d 2d3c 6d33 4e3e a537 9e3e
000000a0: 5f9e d8bd 85c7 ebbd 1aab bb3e 097a 07be
000000b0: 7abc a8bd 8f16 46be 7536 8b3e 0811 3fbe
000000c0: 431f 753e 4fa6 5ebe 0b1b 15be 8a29 373e
000000d0: 14d9 cd3d c4a9 86be a055 67be a90f 51bc
000000e0: 79a3 e33c 3850 d7bd 066c 62bd 916c b5bd
000000f0: 74af 95bb d411 85bd 2663 e2bd c800 073e
00000100: 148c 1d3e 5903 913e 4094 e7bd 59ef 52bd
00000110: 7183 9dbd 92ba 1bbd 236c 1bbe 5c74 1e3e
00000120: 2546 1abe 15cc 8a3e 8cc2 c23d 2cb8 733e
00000130: 63b8 933d ec03 933e 988e 8abe 543e 65be
00000140: 81d8 6bbe eea3 3f3e fdc8 4fbe d0a7 2a3e
00000150: 81c1 b7bd c99e 1d3e eda3 203e da75 a0bd
00000160: 40fa c5be 13be b6be bd64 273e 2d99 f63c
00000170: fd9c c8bd eef6 c43d de26 853c 7c86 2abe
00000180: 75e4 923e 0e90 92bd ce08 dc3c 409e 133e
00000190: 4fa2 84be 3e3a d83c d06d 803e f760 58be
000001a0: 61b0 b73e 33e8 463e 7e45 08be e358 21be
000001b0: 7dbf aebe 236a dfbd d484 113d 38eb a23e
000001c0: bdcc 6e3e 37b9 b7bd 1bd9 573e e6b0 6fbd
000001d0: 261b 06be 5f68 46be 787e 723e da11 7f3b
000001e0: 5679 8b3e 27c0 0a3d 4b65 dbbc f63a 6ebe
000001f0: 84ce a0be 8a41 973e d912 b53c c919 3b3a
00000200: 217e df3d 1d8e 9b3e d9a4 3e3d 3582 de3d
00000210: 5282 943e 8b31 c23d c9a4 2ebe 0063 213e
00000220: aa99 ecbe 0e59 63be 5ba0 3bbd 53fe 5a3e
00000230: 6ffc 103e cf65 75be 5493 84bb 5ab0 d23d
00000240: f357 14be 5fb5 0abc c7c4 92be 9759 1d3e
00000250: b36b 043d fee5 08bd e0d9 253d 4844 20be
00000260: 9db5 863e 7dba 0b3e f814 f13b ff54 0bbe
00000270: 7757 bb3c 517a 553d 75d2 31be a64f 023e
00000280: c8b2 803e 0ab9 32be c1e5 37bd de8f 373e
00000290: f180 543e d520 bdbd 0031 423d ccd0 b1be
000002a0: 2e41 573e 51d9 2a3e 224f adbe e046 103d
000002b0: 2984 62be acde 473d f6cd 123e 3248 a2bd
000002c0: 3c52 9c3e 9d26 a4be 6139 5abc 1e3c a23d
000002d0: 7d49 043e 7ef7 1bbe 5675 64bd 4abc 40be
000002e0: 356a 6a3d 83f2 a8bd 824a 6abe 101e 67be
000002f0: df20 b6be 0607 05bd 72a5 7ebe 880e 00be
00000300: f5d8 873e 34eb 9ebe 828a febb 4794 2fbd
00000310: ea91 143e 2964 15be ca06 1fbd c4f5 94be
00000320: 1916 a23e fa9b a23e 1a79 98be cd13 40be
00000330: bb8d 94bd 20bf b53d 8c96 ba3d d7d1 24be
00000340: 0341 a8be 5ade 523e 480a 08be ea22 473e
00000350: 4578 d33d bb14 313e c5e8 1f3c c985 0f3e
00000360: f86b febe ae38 c0bd 7e11 fc3d 3f79 8e3e
00000370: 67dc 893e b560 1b3e e6f5 803e c56a f8bd
00000380: 50e9 24be 9cf3 593d 9d7f 213e 7bf1 363e
00000390: d5c2 99bc 0afc acbd 138f 0dbe 42a4 643d
000003a0: cb29 313b cf15 003e 13cc df3d 3c39 b7bd
000003b0: da37 f23d 2aa5 aabd acbc 013d aa0a da3c
000003c0: 599e 8f3d 44e4 923d 20f2 91bd 95b7 6dbe
000003d0: 6773 3bbe f677 87be 868e 483e 9654 30bd
000003e0: 52a2 cf3e 9d64 043e 58d1 2abd eb8d 7abe
000003f0: ba7d 8fbe 701a a03e 6eba b4be a6f6 8bbd

2.bias f4 [32]
0.10265984 0.20690332 0.104426146 0.10786864 -0.12304787 -0.052144323 -0.16089053 0.16761109
-0.098457865 0.26827368 0.13297002 0.16261844 -0.2272721 -0.24285163 0.13051246 -0.121609375
0.09608801 0.078155056 -0.27535418 0.09184395 -0.14554769 0.071984574 0.051214296 0.21358576
-0.017685317 0.17308323 0.2234118 0.035543695 0.16851982 -0.062748484 0.16805726 0.18961944
00000000: 523f d23d 77de 533e 60dd d53d 3cea dc3d
00000010: 8600 fcbd 4995 55bd 7dc0 24be 3ea2 2b3e
00000020: 47a4 c9bd 2b5b 893e 4b29 083e 7385 263e
00000030: 04ba 68be 19ae 78be 0fa5 053e 560e f9bd
00000040: cac9 c43d c20f a03d 39fb 8cbe ae18 bc3d
00000050: 740a 15be a66c 933d 15c6 513d 3ab6 5a3e
00000060: cce0 90bc bb3c 313e 10c6 643e 4496 113d
00000070: 7690 2c3e 4782 80bd 3417 2c3e 992b 423e
