weights/shared_weights_6v3_mujoco.pth (torch, 4768 bytes, 4 tensors)

0.weight f4 [16, 4]
0	0xbe924241	-0.28566173
1	0xbcc81ec6	-0.024428736
2	0xbf024f2e	-0.5090207
3	0xbe592636	-0.21205983
4	0x3d64a468	0.055820853
5	0x3e945042	0.28967482
6	0xbe9f085a	-0.3106106
7	0x3e9db9d7	0.30805847
8	0xbd2a65d9	-0.041601036
9	0xbb91d0a3	-0.0044499203
10	0xbe515924	-0.2044416
11	0x3ec7e5ef	0.39042613
12	0xbe9532eb	-0.2914041
13	0x3d818fd3	0.063262604
14	0xbdfdb166	-0.12387352
15	0xbe6e5fe4	-0.23278767
16	0x3e338388	0.17530644
17	0x3e2e44ec	0.17018479
18	0xbd6f6de3	-0.058454406
19	0x3f212bba	0.62957346
20	0x3e6741f5	0.22583754
21	0xbd06873d	-0.032843817
22	0x3ec1170b	0.37712893
23	0xbf089194	-0.53347135
24	0x3eab0056	0.33398694
25	0xbf0c756c	-0.5486667
26	0x3e3ac413	0.18238859
27	0xbde14bcc	-0.11000785
28	0x3e85a66a	0.26103526
29	0xbe66bb58	-0.22532403
30	0x3e0cacc0	0.13737774
31	0xbeb05b88	-0.34444833
32	0x3dcf3bfb	0.10118862
33	0x3e3100e3	0.17285495
34	0xbe13f5a1	-0.14449169
35	0xbe7b657d	-0.24550433
36	0x3e57f7ee	0.21090671
37	0x3efc711b	0.49305043
38	0xbeda4d0e	-0.42636913
39	0x3ec98c92	0.3936506
40	0x3d7084d7	0.058720436
41	0x3e01fce7	0.12694131
42	0xbed91238	-0.42396712
43	0xbe45f547	-0.19331847
44	0xbf0557b2	-0.5208694
45	0xbecd9de6	-0.4015953
46	0xbf05a832	-0.5220977
47	0xbf02f8bb	-0.5116078
48	0x3e9f6eaa	0.31139117
49	0xbf47df17	-0.78074783
50	0xbd274621	-0.040838365
51	0xbe878138	-0.26465774
52	0xbdab138e	-0.08353339
53	0xbe9c90dc	-0.3057927
54	0xbdf2d962	-0.11857869
55	0x3d8a3285	0.06747917
56	0x3e2a2c26	0.16618404
57	0x3ee8ba78	0.45454764
58	0x3eea79c0	0.45796013
59	0x3e63f1da	0.22260228
60	0xbeef4035	-0.46728674
61	0x3f372869	0.71546036
62	0x3d47a3ef	0.048740324
63	0x3e8ae132	0.27124935

0.bias f4 [16]
0	0x3e8782e9	0.26467064
1	0x3e88c641	0.26713756
2	0x3e5443c7	0.2072898
3	0x3c616ef8	0.013759367
4	0xbe4dd336	-0.20100102
5	0x3e430763	0.19045787
6	0xbdb6de4f	-0.08929121
7	0x3e40d19d	0.18829961
8	0x3e9ba776	0.304012
9	0xbe5fee6e	-0.21868297
10	0xbdbdcad4	-0.09267202
11	0x3e82f766	0.25579375
12	0xbd9a3b78	-0.07530874
13	0xbe9185b5	-0.28422323
14	0xbe74fabc	-0.23923773
15	0x3e743c35	0.23851092

2.weight f4 [32, 16]
0	0xbe84b20e	-0.25917095
1	0x3e8cc976	0.27497452
2	0x3e54404b	0.20727651
3	0xbe9eb2cf	-0.30995795
4	0xbc9184a9	-0.017763453
5	0xbe3387b0	-0.1753223
6	0xbd119050	-0.035538018
7	0xbe394e83	-0.18096356
8	0x3e342ae6	0.1759449
9	0xbd9096c8	-0.07060009
10	0xbeaff9f5	-0.3437039
11	0xbea89183	-0.32923517
12	0xbeb8a14a	-0.36060554
13	0xbe2e8f9d	-0.17046972
14	0x3bb3ad8e	0.005483336
15	0x3ea19a5f	0.31563088
16	0xbdb4a489	-0.08820445
17	0x3dceb958	0.10093945
18	0x3d7c3b91	0.061580244
19	0x3df70da3	0.12063148
20	0xbd687a17	-0.05675706
21	0x3e282454	0.16420108
22	0x3dbb3568	0.09141046
23	0xbd125c1a	-0.035732366
24	0x3e28fb88	0.16502202
25	0x3beff7e9	0.0073232544
26	0xbd4935f1	-0.04912371
27	0x3d15b359	0.036547992
28	0xbdf6408f	-0.12024032
29	0x3e38e665	0.18056639
30	0xbe136a1f	-0.1439595
31	0x3d936104	0.07196239
32	0x3e1a4a54	0.15067416
33	0xbe19cdff	-0.15019988
34	0x3e8d6c3e	0.27621645
35	0xbdfa7b60	-0.12230563
36	0x3e815487	0.25259802
37	0xbe644e2c	-0.22295445
38	0x3e0c8506	0.1372262
39	0xbe8bc222	-0.2729655
40	0xbe03495d	-0.12820955
41	0xbd6501bf	-0.05590987
42	0xbe4c65c4	-0.19960696
43	0xbdb3adb8	-0.087733686
44	0xbebad2d4	-0.36488974
45	0x3e4b5cb5	0.19859584
46	0x3e0155b8	0.12630355
47	0xbc776c14	-0.015101451
48	0x3e0aab64	0.13541943
49	0xbe8d0293	-0.27541026
50	0xbe07a86c	-0.13247842
51	0x3d2da6ab	0.042395275
52	0xbdf851f5	-0.12125007
53	0x3d929d85	0.07158951
54	0x3e511351	0.20417525
55	0xbd2b7047	-0.041855123
56	0x3cadd6ca	0.021220583
57	0xbb1acfdf	-0.0023622436
58	0x3c8594ce	0.016306307
59	0x3cf42d73	0.029806828
60	0xbcda3b7a	-0.026639689
61	0x3e1e5577	0.1546229
62	0x3cee6039	0.029098617
63	0xbe8eaa3d	-0.27864257
64	0x3e8b0e69	0.27159432
65	0xbd901ace	-0.070363626
66	0xbe542acb	-0.20719449
67	0xbd6beb30	-0.05759734
68	0xbe594812	-0.21218899
69	0xbda5371d	-0.08067153
70	0xbdb8930c	-0.09012422
71	0x3e414e32	0.18877485
72	0x3defea03	0.11714556
73	0xbe0a13e8	-0.13484156
74	0xbc843d9c	-0.016142659
75	0xbd397750	-0.0452798
76	0x3e4108e9	0.18851055
77	0x3d3338c0	0.043755293
78	0xbe0e4429	-0.13893189
79	0xbe154508	-0.14577115
80	0x3d9e6f6e	0.07736097
81	0x3e901f4b	0.28148875
82	0x3e11e2be	0.14246652
83	0x3bb8ef61	0.0056437706
84	0x3e42807c	0.18994325
85	0x3e44032b	0.19141833
86	0x3e06a652	0.13149384
87	0x3e4583e2	0.1928859
88	0xbc1e4511	-0.009660021
89	0x3e6e6267	0.23279725
90	0xbd944aa7	-0.07240801
91	0xbe566a1f	-0.2093892
92	0xbeb7f753	-0.3593088
93	0x3dd5cbc2	0.10439254
94	0x3ea186b3	0.3154808
95	0x3e014f63	0.1262794
96	0x3d99ea01	0.07515336
97	0x3c1149a4	0.008867655
98	0x3e7123f0	0.23548865
99	0xbd41df66	-0.04733219
100	0x3d8851d0	0.066562295
101	0xbe219ea5	-0.15783174
102	0x3e09e636	0.13466725
103	0xbc8bdeca	-0.017074008
104	0xbe3f2b02	-0.1866875
105	0xbd83ab6a	-0.06429179
106	0xbc2a043b	-0.010376985
107	0xbd872acd	-0.065999605
108	0xbe1b5a87	-0.15171252
109	0x3d9c40e5	0.07629565
110	0x3e8c9782	0.2745934
111	0x3b1756c1	0.002309248
112	0xbe8ec2b4	-0.27882922
113	0x3c47d784	0.012197379
114	0xbd94f5ea	-0.07273467
115	0x3ddcfa46	0.10789923
116	0xbd66159f	-0.056172963
117	0x3d37404d	0.044739056
118	0xbe01c349	-0.12672152
119	0xbde66987	-0.112505965
120	0x3e212076	0.15735039
121	0xbdc2da29	-0.09514267
122	0x3da32de2	0.07967736
123	0xbcdb672d	-0.026782596
124	0xbe438781	-0.1909466
125	0xbe6cf3fc	-0.23139948
126	0x3d345e93	0.044035506
127	0xbbcd5d1c	-0.006267203
128	0x3dcad9ba	0.09904809
129	0xbe067f76	-0.1313456
130	0x3e1360d0	0.143924
131	0x3de919bd	0.11381862
132	0xbe89d110	-0.26917315
133	0x3e54bcda	0.20775166
134	0x3ce4fd69	0.027952867
135	0x3e7df34e	0.24799845
136	0xba030e94	-0.0004999426
137	0xbe50beb8	-0.20385253
138	0x3d9fe97c	0.078082055
139	0x3e30f025	0.17279108
140	0x3eb5d744	0.35515797
141	0xbc4ba254	-0.012428839
142	0xbe364bac	-0.17802304
143	0xbe0339eb	-0.12815063
144	0xbe64b6f3	-0.22335415
145	0xbd5f6b71	-0.054545823
146	0xbe1764e4	-0.1478458
147	0x3d431889	0.04763082
148	0x3e54ce84	0.20781904
149	0xbe6f2b45	-0.2335635
150	0x3df632ce	0.12021409
151	0xbd1e7ed5	-0.038695175
152	0xbd90ccc3	-0.07070305
153	0xbe32fe23	-0.17479758
154	0x3e292299	0.16517104
155	0x3e60e8e2	0.21963838
156	0x3dd10b55	0.102072395
157	0xbe3495fe	-0.17635342
158	0xbcf46f4e	-0.02983823
159	0xbea4cae6	-0.3218605
160	0xbe8b7baf	-0.272428
161	0xbe6b26fd	-0.22964092
162	0x3dc40c9d	0.09572718
163	0xbe8d3dfb	-0.2758635
164	0xbc6c7901	-0.014433146
165	0xbe06071c	-0.1308865
166	0x3d199a09	0.037500415
167	0xbc614804	-0.01375008
168	0x3dfb765f	0.12278437
169	0x3cc57c2e	0.024107065
170	0x3d9f1e1f	0.07769417
171	0xbe741ca7	-0.23839055
172	0xbc4a2331	-0.012337492
173	0xbe39762f	-0.1811149
174	0x3d9739a7	0.07384043
175	0x3e685295	0.22687753
176	0x3e17d7fe	0.14828488
177	0xbdc75616	-0.097332165
178	0xbdc3d54f	-0.0956217
179	0xbea5ca69	-0.3238099
180	0x3e03ead4	0.12882549
181	0xbe13d889	-0.1443807
182	0xbdbd130f	-0.09232151
183	0xbd8885f3	-0.06666174
184	0xbd2f60f2	-0.042817064
185	0x3d997a01	0.074939735
186	0xbe946799	-0.2898529
187	0xbd216af8	-0.039408654
188	0xbdb636c7	-0.08897167
189	0xbe347668	-0.17623293
190	0x3ebb138c	0.3653835
191	0x3e9b0505	0.30277267
192	0xbdaa905f	-0.08328318
193	0xbc674951	-0.014116601
194	0xbe21c00a	-0.15795913
195	0xbddae043	-0.10687306
196	0xbcf31eeb	-0.029677829
197	0xbdbe9623	-0.0930598
198	0xbe3b50ca	-0.18292537
199	0xbdf8a646	-0.12141089
200	0xbdd9acbe	-0.10628651
201	0xbe95ba91	-0.292439
202	0xbcc5eb63	-0.024160093
203	0x3d240eb4	0.040053084
204	0x3ea83221	0.32850745
205	0x3dc33ebe	0.095334515
206	0xbd0aa96c	-0.03385298
207	0xbc5ff8ad	-0.013670129
208	0xbe425a32	-0.1897972
209	0x3c81e29d	0.015855128
210	0x3dbdcefd	0.092679955
211	0xbddee94a	-0.1088434
212	0x3e33b1b8	0.17548263
213	0xbe1eaf76	-0.1549662
214	0xbdc26c0a	-0.09493263
215	0xbe3ac0b8	-0.18237579
216	0x3c25305c	0.010082331
217	0xbe4398d7	-0.19101273
218	0xbd0d560a	-0.03450588
219	0x3cbce68a	0.023059148
220	0x3d59bf9c	0.05316125
221	0xbe42d236	-0.19025502
222	0x3e576d24	0.21037728
223	0x3e3fdebe	0.18737313
224	0xbde00e5c	-0.10940239
225	0x3e33497c	0.17508501
226	0xbe41410d	-0.18872471
227	0xbe9fdcb9	-0.31223086
228	0x3e97d7a1	0.296567
229	0xbe72b6fe	-0.23702618
230	0x3dce9f17	0.10088938
231	0xbe391813	-0.1807559
232	0x3e5afbaa	0.21385065
233	0x3e4a673b	0.19765942
234	0xbe0445d9	-0.1291727
235	0xbe9932a5	-0.2992145
236	0xbeaf9f64	-0.34301293
237	0xbdd4f31d	-0.10397933
238	0x3c0d8a6c	0.008638959
239	0x3dcec855	0.10096804
240	0x3df2e770	0.118605494
241	0x3e8020b8	0.25024962
242	0xbdc70cff	-0.09719276
243	0xbd55f001	-0.05223084
244	0x3e984404	0.29739392
245	0x3dabd303	0.08389857
246	0xbdd5f0e9	-0.104463406
247	0x3e16c201	0.14722444
248	0xbe2f3b49	-0.17112459
249	0xbe0e2a48	-0.13883317
250	0xbd9fd39f	-0.078040354
251	0xbe9777c2	-0.29583555
252	0xbe12cf13	-0.14336805
253	0xbe84e3e4	-0.25955117
254	0x3e0e3b97	0.13889919
255	0x3e0addd4	0.13561183

2.bias f4 [32]
0	0xbcb66a6f	-0.022267548
1	0xbe457514	-0.19282943
2	0xbe24427b	-0.16040985
3	0xbe86ebdd	-0.26351824
4	0x3e42596e	0.18979427
5	0xbd376499	-0.04477367
6	0xbe527ec1	-0.20556165
7	0xbe4d219d	-0.20032354
8	0x3b3a9f9e	0.0028476487
9	0xbd6c7e30	-0.05773753
10	0x3e542292	0.20716313
11	0x3e556cb3	0.20842247
12	0x3e8d13e6	0.27554244
13	0x3e563a32	0.20920637
14	0xbde42f32	-0.11141814
15	0x3d8a2d9c	0.067469805
16	0xbe6932ac	-0.22773236
17	0xbe0f1a57	-0.13974892
18	0xbe0c7b2e	-0.13718864
19	0x3d5434f5	0.051808316
20	0xbdd5bfe2	-0.10436989
21	0x3e8e6d63	0.2781783
22	0xbe018750	-0.12649274
23	0x3e1f8c98	0.15580976
24	0xbdef51fa	-0.11685558
25	0xbe0b5f5d	-0.13610597
26	0x3d24efbf	0.040267702
27	0x3e8901b4	0.26759112
28	0x3e360fce	0.17779467
29	0x3e25a4c3	0.16176133
30	0xbd65f882	-0.0561452
31	0xbcad71dd	-0.021172458
