weights/shared_weights_3.pth (torch, 4632 bytes, 4 tensors)

0.weight f4 [16, 4]
00000000: d685 b6bc bc3e 9ebe 1bbd b1bc 21ce ab3e
00000010: aa58 883e 7c00 94be cb8e 883e 579f 8cbd
00000020: a0fc 9d3e 528d 003f a759 f53e 24c9 4f3e
00000030: 41e6 883e 74e7 323e af51 78bd 1cd4 ee3e
00000040: 3d4b b2be e851 fe3e 7640 89be 4762 46be
00000050: ee33 c9be 09c8 b4be b3bc 833e b171 9abe
00000060: d037 4bba 7593 1c3e b8e9 25be be8b 3cbc
00000070: 3980 66be 7f7c ab3e 37cf 343e ddeb cfbe
00000080: c0a0 43bd 2445 8b3e 6605 a23e c53e f23e
00000090: 4ef7 c0be 3640 29be 2613 f3be 4c74 d5be
000000a0: 214b ebbe 166d c3bd 2174 9d3e 34cb a03e
000000b0: da9c d43e b4ef ce3e e5d5 7abe 9cf1 80bc
000000c0: 6ed9 ebbe 38b8 4b3e 1fda d6bd 29a9 e93e
000000d0: bf46 4fbe 273e 71bd 5732 fdbe b481 7b3e
000000e0: 2cc2 12be b7f0 2e3c bfd9 06bd 40df 20be
000000f0: 0eb4 5a3e 7ac0 d9be 82c6 8ebe 8f93 b03d
-0.022280615 -0.30907238 -0.021696618 0.335557 0.26630145 -0.2890662 0.26671442 -0.06866329
0.308568 0.5021564 0.47919962 0.20291573 0.2673817 0.17471105 -0.060624775 0.46646202
-0.34823027 0.49671865 -0.26806992 -0.19373427 -0.39297432 -0.35308865 0.25729904 -0.30164865
-0.0007752152 0.15290625 -0.16202438 -0.0115079265 -0.2250985 0.3349342 0.17657171 -0.40609637
-0.047760725 0.27201188 0.31644744 0.47313514 -0.37688679 -0.16528401 -0.47475547 -0.4169029
-0.45955756 -0.09542291 0.30752662 0.31405032 0.41525918 0.40417254 -0.24495657 -0.015740208
-0.46064323 0.19894493 -0.10490822 0.4563687 -0.20241831 -0.058897164 -0.4945247 0.24561197
-0.14331883 0.010677508 -0.032922503 -0.15710163 0.21357748 -0.4252966 -0.27885824 0.086218946

0.bias f4 [16]
00000000: cb67 d3be dcce adbd 2d39 c23e 1345 113e
00000010: b844 d4be df01 ebbe ee8d bfbe 8ec8 90be
00000020: 00a0 c73e 7a45 9e3e 4d89 813d 9973 a73e
00000030: 44c7 983e c8dd 603e 640d 513d 97d1 e3be
-0.41290125 -0.08486721 0.37934247 0.14186506 -0.41458678 -0.45899865 -0.3741297 -0.2827801
0.38989258 0.3091238 0.06325016 0.32705382 0.29839528 0.21959603 0.05103816 -0.44495842

2.weight f4 [32, 16]
00000000: 9491 75be 4421 783e bcbd 233e fd64 23be
00000010: 456a 2a3e a79c 133e 60ef 68bd 493b 85be
00000020: 52f7 03be 1335 4ebe a36b 76bd 4ff0 583e
00000030: 46c2 4fbc 4c78 7bbd 8c89 17be 5e51 043e
00000040: df44 65bd a8e8 053c ca0c edbd 9123 cabc
00000050: a9ae 153d 494b dcbd 3209 b13c 0ed0 0b3e
00000060: 5644 383e ed54 053c 5d4a bebc a561 4d3e
00000070: 4c56 2fbe e3c7 1d3c 9b1c 0cbe 8149 0f3e
00000080: a762 8d3e b587 88bd c737 27be fd30 3f3e
00000090: 74dd 09be f240 aebd acd0 d83d 2347 533c
000000a0: 36e0 383c 0ee5 e4bd a25c 4abd 2b26 edbc
000000b0: 30e4 4dbe 0d3c f93d 8ec6 0e3e 11d1 5e3e
000000c0: 4df1 c4bc f265 34be 72da 6bbe 796d 30be
000000d0: 0bce 2b3d d5c1 7abe 4b8a 25be cbc1 c1bd
000000e0: 0b3d f5bd af40 5d3d 65ee 6f3e 94dd 3dbe
000000f0: 212d d8bd eebe 5ebe 8391 673e 853f fa3d
00000100: cb12 b5bb 7804 8a3e 8eb7 c93b 6fbd 40be
00000110: 3821 a3bd 21df 5bbe 8e2b d63d 50ed 4ebd
00000120: 2b01 b73c 3158 a4bd 0973 fd3d 67e8 43be
00000130: ec6e 91bd 0f10 9cbd 9bc2 49bc 71a9 09be
00000140: ea1c 143e 1ece 173e 0230 d4bc 83fc 2bbe
00000150: d621 40bd df63 993d 1555 63be 3045 65be
00000160: 62ec debd 16e1 1b3e 8530 4ebd c5c3 833d
00000170: f3bc ddbd 9631 31bd a023 7a3e 1a3a bcbd
00000180: 0a20 44be cb80 653e 59ef 52be 34ce 943c
00000190: 08e2 193e 3f22 473e 4e51 edbd df1d 3f3d
000001a0: 6c31 6abe cede e9bd 5df6 98bc 724c b13c
000001b0: 65ff f83d 066f 9d3c e2f0 1a3d da8f e73d
000001c0: da78 b63d 11c4 dabd 2fad 5dbe d078 623d
000001d0: a2fe 6dbe 4994 45bd 8f4c 243d 2ce8 6dbe
000001e0: 047d 30be 0a3e ed3d fa32 fbbd a9c6 1c3e
000001f0: 2804 b83d da79 49be 77ed 36bd 9700 813b
00000200: e70d a8bd b1f6 403c 96b2 c7b9 3049 0fbe
00000210: 17a8 54be 69bc 1cbe bf1b 4bbe c241 373e
00000220: 784f 3fbe 2617 37bd e02e 00be 592b 2d3e
00000230: a104 223e 2941 85bd 5a2d 363d 5072 10be
00000240: df02 68be 6003 9c3d df6a eabd 6b9f cabd
00000250: c210 38be 0d85 36be 99ad 9fbd c18a 9a3d
00000260: 2770 21be f5d1 27be aac9 25bd 6856 9b3d
00000270: 2803 cb3d ca77 673e a5ad 5d3e 5c3b 7f3c
00000280: 741b 1dbe a0b2 47be d247 593e c472 db3d
00000290: d05e d3bd 8a06 5bbe f071 9cbd 72e1 62be
000002a0: b735 f73d bb72 efbc e454 10be 8fd5 a53d
000002b0: 1d3e 623e dca5 e6bc e891 6a3c 73e7 7fbd
000002c0: 538c 913d b431 69be f2ab 2e3c 056b 633e
000002d0: 62af 18be 2a4a 0ebe 146b 2b3e 4b24 833e
000002e0: f2ee 53bd 1317 a73d 225b 803e 5af6 4ebe
000002f0: 8fe8 1fbe 9868 e73d 6dfd 0d3e 1dcd eabd
00000300: 3542 f63d f325 79be 0fea a8bd d039 dfbd
00000310: 9744 783e ec0c 89be 169a 243e 0627 12bd
00000320: 8fe9 e4bd d56d b93d 469f fbbc f3b4 b43c
00000330: e969 3dbe f212 493d 22db a0bc b04d 833c
00000340: 8e97 d9bc 7a17 a73d 44cd a73d 1d33 b23d
00000350: 53fe 6e3e ce40 86be c6d9 6d3c f015 2ebe
00000360: 5497 e3bd d03a 9e3c 22c0 b3bd 27a0 483e
00000370: ee46 67be 8b75 febd 5e05 69be ae0c 0bbd
00000380: edaf fe3c dcc8 0e3e 746e 51be 15ad 42be
00000390: aec3 db3d 5b5b 363e fa5a 383c 7ed6 df3d
000003a0: 667e 1dbe b79e 713e 4445 3f3c c299 4dbd
000003b0: e4e5 3bbe 578b a23d 3949 88bd dadb 23be
000003c0: 68db 88bd bd07 45be 0cd7 653e 8ac9 c03d
000003d0: 3dc6 46be 52bf 1b3e 7a5e bdbd 960e 9a3c
000003e0: de67 a43d fc65 2b3e af21 f3bd 0a2d 323e
000003f0: 7ee2 32ba 7c2e d83a 10af 843e 79bc 01be
-0.23981315 0.2423144 0.15990347 -0.15956493 0.16642101 0.14415227 -0.05686891 -0.26021793
-0.12887314 -0.20137434 -0.060161244 0.2118542 -0.012680596 -0.06139402 -0.14798564 0.12921664
-0.055973884 0.008173145 -0.11574705 -0.024675163 0.036543522 -0.10756547 0.02161083 0.13653585
0.17994818 0.008137924 -0.023228819 0.2005678 -0.17122763 0.009630176 -0.13682787 0.13992883
0.27614328 -0.06666509 -0.16329871 0.18671031 -0.13463384 -0.08508481 0.10586676 0.012895378
0.011283925 -0.11176501 -0.049404748 -0.028948864 -0.20106578 0.12169657 0.1394293 0.2175944
-0.024040842 -0.17617014 -0.23032549 -0.1722926 0.041944545 -0.24488004 -0.16166036 -0.09460791
-0.11974534 0.054016765 0.23430784 -0.18541557 -0.10555483 -0.21752521 0.22614102 0.12219147
-0.005525922 0.26956534 0.0061559146 -0.18822263 -0.0796532 -0.21471836 0.10457526 -0.050519288
0.022339424 -0.08024634 0.12375457 -0.19131623 -0.07101235 -0.076202504 -0.012314464 -0.13443543
0.14464155 0.14824721 -0.025901798 -0.16795544 -0.04690727 0.07489752 -0.22200425 -0.22389674
-0.1088493 0.15222582 -0.05033924 0.064338244 -0.10827055 -0.04326018 0.24427652 -0.091907695
-0.19152847 0.22412412 -0.20599116 0.018164732 0.1502763 0.19446658 -0.11587773 0.046659347
-0.22870415 -0.1141945 -0.018672163 0.021642897 0.12158088 0.01921798 0.03782738 0.113067344
0.08909769 -0.10681928 -0.21648096 0.055290997 -0.23241666 -0.04823712 0.040112074 -0.23233098
-0.1723519 0.11584099 -0.122655824 0.15310158 0.08985168 -0.19675389 -0.044660058 0.003936838
-0.08205777 0.011777566 -0.00038089295 -0.13992763 -0.20767246 -0.15306248 -0.19834803 0.17896178
-0.18682659 -0.04469981 -0.12517881 0.16911067 0.15822078 -0.06506569 0.044476844 -0.14106107
-0.22657345 0.07617831 -0.11446165 -0.09893688 -0.17975143 -0.17824192 -0.07796783 0.075459965
-0.15765439 -0.16388686 -0.040475525 0.0758484 0.099127114 0.2260429 0.21648271 0.015578117
-0.15342504 -0.19501734 0.21218804 0.10715249 -0.103208184 -0.21389213 -0.07638919 -0.22156313
0.12070792 -0.029229512 -0.14094883 0.08097374 0.22094007 -0.02815526 0.014317013 -0.062476587
0.07106843 -0.22772866 0.010661112 0.22208793 -0.14910653 -0.13895479 0.16740066 0.25613627
-0.051741548 0.08158698 0.2506953 -0.20211163 -0.15616058 0.112992465 0.13866206 -0.114649035
0.12024347 -0.24330883 -0.08247768 -0.10899699 0.24244915 -0.2676767 0.16074404 -0.035681747
-0.1117736 0.09054152 -0.030715596 0.02205894 -0.18497433 0.049090333 -0.01963574 0.016028255
-0.026561525 0.08158775 0.08193448 0.08701155 0.23339204 -0.26221317 0.014517253 -0.17000556
-0.11112848 0.019315153 -0.08776881 0.19592343 -0.22585651 -0.12424763 -0.22755954 -0.03394764
0.031089747 0.1394381 -0.20452291 -0.19011338 0.10730682 0.17808287 0.011252159 0.10929583
-0.15380248 0.23595701 0.011674229 -0.050195463 -0.18349415 0.07936733 -0.06654591 -0.16001835
-0.066824734 -0.19241233 0.22445315 0.094134405 -0.1941156 0.15209702 -0.092465356 0.018805783
0.080276236 0.16738123 -0.11871659 0.17399994 -0.0006823911 0.0016493346 0.25914812 -0.12669553

2.bias f4 [32]
00000000: 8a7e 10be cd7d f5bd 6ca9 493e ddaa 7a3d
00000010: 1670 74be b9e2 3e3d e7f3 ab3d c4d7 4cbe
00000020: 1d85 70be b5b7 da3d ad85 35bd a15d 153e
00000030: 1820 48be d96c 4e3e 9fa2 0abe 854d 8bbd
00000040: 3281 ec3b 2630 b0bd be65 1abd e63d 643e
00000050: 1897 87bd 2dad 0cbe eaad 6c3e 251f d1bd
00000060: 298f 1dbe 92ee 423e 1799 6d3e c630 8dbb
00000070: 3c63 803c 2262 29bd 5aeb fd3d 95d4 ba3c
-0.14110771 -0.11986885 0.19693536 0.061198104 -0.23870882 0.04660294 0.0839613 -0.20004183
-0.23488279 0.106795706 -0.044316936 0.14586498 -0.19543493 0.2015871 -0.13538598 -0.06801895
0.0072175497 -0.086029336 -0.037694685 0.22289237 -0.06620616 -0.13737936 0.23113218 -0.102110185
-0.15386643 0.1903632 0.2320293 -0.0043087928 0.015672319 -0.041353352 0.123984054 0.022806445
