weights/shared_weights_5.pth (torch, 4632 bytes, 4 tensors)

0.weight f4 [16, 4]
-0.017219946 -0.3087323 -0.022831166 0.34286004 0.27043268 -0.29532278 0.26328972 -0.059521712
0.3177887 0.5194682 0.46918422 0.21327013 0.26541227 0.18300244 -0.061569918 0.45998085
-0.3550405 0.49965522 -0.2627213 -0.20292003 -0.39866048 -0.3553634 0.26093405 -0.30590278
-0.0015435533 0.15002081 -0.16617757 -0.0074810563 -0.23018843 0.33904222 0.17754756 -0.41315362
-0.044962384 0.27964368 0.3121646 0.47153273 -0.38279545 -0.15782091 -0.4722735 -0.4261882
-0.45540544 -0.09866505 0.30578643 0.31480718 0.41578078 0.40269265 -0.24963666 -0.015918273
-0.46080482 0.19003978 -0.1113682 0.4666604 -0.20130706 -0.066577226 -0.4927247 0.25332043
-0.14546406 0.0034779885 -0.032971222 -0.15017125 0.21540062 -0.41883826 -0.27768123 0.091404095
00000000: d810 8dbc 2912 9ebe 6d08 bbbc 5a8b af3e
00000010: 2776 8a3e 8c34 97be e9cd 863e 0acd 73bd
00000020: 33b5 a23e defb 043f ea38 f03e 7c63 5a3e
00000030: 1ee4 873e fe64 3b3e bd30 7cbd 9c82 eb3e
00000040: dec7 b5be cfd2 ff3e 6883 86be 45ca 4fbe
00000050: 3a1d ccbe 31f2 b5be 2699 853e 4a9f 9cbe
00000060: 0e51 caba 0e9f 193e 742a 2abe a623 f5bb
00000070: 84b6 6bbe f196 ad3e 07cf 353e df88 d3be
00000080: 7a2a 38bd 752d 8f3e 0ad4 9f3e bd6c f13e
00000090: c4fd c3be ce9b 21be d5cd f1be 5735 dabe
000000a0: e72a e9be e710 cabd 0a90 9c3e 682e a13e
000000b0: 38e1 d43e bb2d ce3e c1a0 7fbe 0a67 82bc
000000c0: 9cee ebbe ca99 423e 0315 e4bd 1dee ee3e
000000d0: 7023 4ebe a459 88bd 6946 fcbe 37b3 813e
000000e0: 88f4 14be f7ee 633b d50c 07bd 7ec6 19be
000000f0: fb91 5c3e f871 d6be 3c2c 8ebe 1232 bb3d

0.bias f4 [16]
-0.40699488 -0.08006462 0.3885742 0.14096482 -0.42183587 -0.46565384 -0.37333065 -0.28875795
0.3923207 0.30303097 0.065922774 0.32872334 0.29685256 0.21854913 0.04688941 -0.4419807
00000000: a261 d0be ebf8 a3bd 33f3 c63e 1559 103e
00000010: dffa d7be 2e6a eebe 3225 bfbe 15d8 93be
00000020: 42de c83e e026 9b3e 8502 873d 6d4e a83e
00000030: 0ffd 973e 58cb 5f3e 1c0f 403d 4b4b e2be

2.weight f4 [32, 16]
-0.23849118 0.24617964 0.1606928 -0.1582698 0.15872818 0.14178461 -0.06448307 -0.26728395
-0.12882039 -0.19974825 -0.060147617 0.21313472 -0.016062517 -0.058010455 -0.1566619 0.13138257
-0.06422429 -0.0012936326 -0.10935409 -0.018524773 0.04611042 -0.11310439 0.03098944 0.14680095
0.18677168 0.0016816685 -0.030729957 0.20661847 -0.16316251 0.0027327228 -0.13083147 0.13100749
0.28448024 -0.057053845 -0.16972993 0.17997974 -0.14376123 -0.07886727 0.09670369 0.0028328693
0.00394987 -0.104980186 -0.041379202 -0.03561816 -0.20870598 0.12855588 0.13483387 0.22638139
-0.028356992 -0.18321843 -0.22826771 -0.1703352 0.05146532 -0.24548881 -0.15203403 -0.08425267
-0.11663713 0.050194666 0.23066038 -0.18353967 -0.09952449 -0.22342671 0.23466873 0.11654404
0.0014795179 0.2782837 0.0017541392 -0.19242398 -0.08889034 -0.21083544 0.095420755 -0.060781684
0.016864967 -0.07455145 0.12971729 -0.19552109 -0.07809097 -0.06932787 -0.018748995 -0.12656035
0.1390057 0.13909392 -0.023950383 -0.16604495 -0.037322596 0.073997825 -0.21257305 -0.2128963
-0.10542764 0.1479905 -0.054358914 0.06601783 -0.10159285 -0.04964319 0.25167084 -0.09876911
-0.18842524 0.22377688 -0.2101058 0.013558914 0.15394613 0.1997592 -0.11151348 0.050391804
-0.23200504 -0.112515815 -0.01475575 0.01665646 0.12127823 0.018803045 0.046178512 0.11454935
0.09706641 -0.0986256 -0.2227678 0.04845935 -0.2379304 -0.041517023 0.034591816 -0.23842539
-0.17914937 0.12173352 -0.114551105 0.14595713 0.08341524 -0.19067845 -0.04406985 0.011934278
-0.08037403 0.016258083 8.271842e-05 -0.1390639 -0.21517564 -0.15466423 -0.20595999 0.17109656
-0.18715504 -0.0429606 -0.12463744 0.16996326 0.15431173 -0.061467182 0.035645396 -0.13809295
-0.22425456 0.08076455 -0.11453861 -0.09882361 -0.18717399 -0.1790257 -0.08562779 0.06784905
-0.15859506 -0.16173778 -0.039421503 0.07605662 0.09506746 0.22927715 0.20779642 0.018705029
-0.14949034 -0.18777098 0.21088117 0.105758905 -0.1124842 -0.21346647 -0.08554355 -0.23149543
0.11821447 -0.025801674 -0.1380928 0.0798695 0.2149372 -0.022463221 0.005838853 -0.057335973
0.07013357 -0.23146902 0.009422857 0.22041968 -0.14147578 -0.13629101 0.17483546 0.26321167
-0.051880833 0.08022708 0.25070354 -0.20369498 -0.15276374 0.109517746 0.14734171 -0.11666108
0.110835865 -0.25286716 -0.074684836 -0.101509586 0.25197953 -0.27461776 0.1701983 -0.025152452
-0.10354391 0.08316799 -0.039331958 0.029737074 -0.17647523 0.04146194 -0.015619756 0.0064863046
-0.031682376 0.07902047 0.08783781 0.09310907 0.23177682 -0.2689413 0.01266079 -0.1710663
-0.10558145 0.016312443 -0.09354896 0.20233902 -0.22311525 -0.1252004 -0.23434055 -0.0379525
0.038541306 0.14510086 -0.21131468 -0.19758293 0.10594087 0.18559551 0.01029833 0.10767879
-0.16091642 0.24056174 0.01955073 -0.05782864 -0.18797332 0.082190074 -0.06230512 -0.15291373
-0.075252734 -0.20122834 0.2308609 0.10065438 -0.18569383 0.14557709 -0.08440039 0.02768917
0.08743063 0.16062981 -0.12658346 0.18066014 0.0066389 -0.005349951 0.2613632 -0.13526855
00000000: 0837 74be 8416 7c3e a78c 243e 7a11 22be
00000010: a489 223e fc2f 113e b30f 84bd 71d9 88be
00000020: 7ee9 03be ce8a 4cbe 595d 76bd fd3f 5a3e
00000030: 8a95 83bc 5f9c 6dbd fa6b 20be 2789 063e
00000040: 0688 83bd 1b8f a9ba 0af5 dfbd 44c1 97bc
00000050: 48de 3c3d 46a3 e7bd 91dd fd3c fd52 163e
00000060: 1341 3f3e 6e6b dc3a 64bd fbbc cb93 533e
00000070: 1314 27be 7b17 333b aff8 05be d426 063e
00000080: 65a7 913e 4bb1 69bd afcd 2dbe 9c4c 383e
00000090: 2536 13be 2a85 a1bd 960c c63d a9a7 393b
000000a0: e96d 813b daff d6bd 3d7d 29bd 59e4 11bd
000000b0: 05b7 55be 27a4 033e e411 0a3e 86d0 673e
000000c0: ec4c e8bc 9d9d 3bbe 03bf 69be 5a6c 2ebe
000000d0: 4dcd 523d 6b61 7bbe cfae 1bbe aa8c acbd
000000e0: 73df eebd ec98 4d3d 3c32 6c3e d3f1 3bbe
000000f0: 7fd3 cbbd f9c9 64be 004d 703e a4ae ee3d
00000100: 62ec c13a 337b 8e3e 25eb e53a cb0a 45be
00000110: 230c b6bd 3fe5 57be f56b c33d 37f6 78bd
00000120: 6628 8a3c 6eae 98bd 9cd4 043e ae36 48be
00000130: 29ee 9fbd c5fb 8dbd 7e97 99bc 0999 01be
00000140: 8357 0e3e a36e 0e3e 9833 c4bc b007 2abe
00000150: 94df 18bd 2c8c 973d c0ac 59be 7d01 5abe
00000160: 72ea d7bd d28a 173e 74a7 5ebd 5b34 873d
00000170: ea0f d0bd a856 4bbd 00db 803e 7647 cabd
00000180: 8cf2 40be c425 653e fa25 57be 3526 5e3c
00000190: 0ea4 1d3e ad8d 4c3e 2e61 e4bd a367 4e3d
000001a0: bb92 6dbe b16e e6bd 1ac2 71bc 2173 883c
000001b0: b860 f83d d808 9a3c ae25 3d3d da98 ea3d
000001c0: c1ca c63d 38fc c9bd 3e1d 64be 507d 463d
000001d0: 07a4 73be c10d 2abd 26b0 0d3d c925 74be
000001e0: ef72 37be 6c4f f93d c599 eabd c975 153e
000001f0: 9cd5 aa3d 3641 43be 9682 34bd fd87 433c
00000200: 249b a4bd ac2f 853c 1d79 ad38 c466 0ebe
00000210: 0157 5cbe 4d60 1ebe 2de7 52be f033 2f3e
00000220: 92a5 3fbe 74f7 2fbd ea41 ffbd d90a 2e3e
00000230: e503 1e3e 03c5 7bbd e800 123d 3d68 0dbe
00000240: fda2 65be e267 a53d 3893 eabd 0864 cabd
00000250: 8aaa 3fbe 8352 37be 9f5d afbd 71f4 8a3d
00000260: be66 22be 979e 25be 7178 21bd 93c3 9b3d
00000270: bab2 c23d a1c7 6a3e 96c8 543e 4a3b 993c
00000280: ff13 19be 0947 40be 3cf1 573e 2098 d83d
00000290: 1e5e e6bd f496 5abe 7531 afbd 230d 6dbe
000002a0: 6e1a f23d 085e d3bc 3368 0dbe 9f92 a33d
000002b0: 7f18 5c3e ca04 b8bc d953 bf3b 20d9 6abd
000002c0: 30a2 8f3d 3706 6dbe 5462 1a3c b2b5 613e
000002d0: 07df 10be df8f 0bbe 1108 333e aec3 863e
000002e0: ff80 54bd 184e a43d 375c 803e 6b95 50be
000002f0: 196e 1cbe d74a e03d bfe0 163e 01ec eebd
00000300: eafd e23d ce77 81be 5df4 98bd 42e4 cfbd
00000310: 7603 813e b39a 8cbe 7748 2e3e 840c cebc
00000320: d40e d4bd fb53 aa3d 8c1a 21bd 2a9b f33c
00000330: ecb5 34be ffd3 293d 01ea 7fbc 118b d43b
00000340: 61c5 01bd 7cd5 a13d 4fe4 b33d f8af be3d
00000350: e756 6d3e adb2 89be 346f 4f3c 012c 2fbe
00000360: 163b d8bd aca1 853c 9996 bfbd f631 4f3e
00000370: 5378 64be 8934 00be f8f6 6fbe 1574 1bbd
00000380: 7ddd 1d3d 5295 143e e062 58be 2e53 4abe
00000390: 87f7 d83d c00c 3e3e 54ba 283c b386 dc3d
000003a0: 46c7 24be d155 763e da28 a03c b9dd 6cbd
000003b0: 147c 40be 4553 a83d a733 7fbd 6b95 1cbe
000003c0: 1b1e 9abd cd0e 4ebe cd66 6c3e e223 ce3d
000003d0: 8626 3ebe 2912 153e 1dda acbd 66d4 e23c
000003e0: d50e b33d 247c 243e 189f 01be f9fe 383e
000003f0: 218b d93b a44e afbb 66d1 853e d783 0abe

2.bias f4 [32]
-0.13753381 -0.115406305 0.19167587 0.060620863 -0.24085934 0.04626063 0.07768703 -0.20574401
-0.23166293 0.10885555 -0.043131392 0.14199278 -0.188831 0.20874085 -0.14236389 -0.062482446
0.0019778907 -0.08540309 -0.037807945 0.22619423 -0.06979447 -0.14130026 0.2359607 -0.108475424
-0.15307273 0.19311582 0.23334497 -0.0058380906 0.01593732 -0.050344933 0.120664395 0.020963157
00000000: aad5 0cbe 245a ecbd ae46 443e 954d 783d
00000010: d5a3 76be c97b 3d3d 611a 9f3d 8fae 52be
00000020: 0c39 6dbe a9ef de3d 8baa 30bd 8e66 113e
00000030: ea5c 41be 29c0 553e d7c7 11be 98ed 7fbd
00000040: 809f 013b d1e7 aebd 81dc 1abd 769f 673e
00000050: 67f0 8ebd 04b1 10be af9f 713e 5d28 debd
00000060: 19bf 1cbe 27c0 453e fcf1 6e3e 744d bfbb
00000070: fc8e 823c 7d36 4ebd e51e f73d edba ab3c
