weights/shared_weights_6.pth (torch, 4632 bytes, 4 tensors)

0.weight f4 [16, 4]
00000000: 79f2 92bc 63af 9dbe 7371 cfbc ebc7 b03e
00000010: be13 8a3e b330 97be e39f 853e 89e6 69bd
00000020: f22d a33e 86fc 053f deb2 ee3e 1338 5e3e
00000030: 3752 883e eba4 3b3e bf9e 73bd fbba ea3e
00000040: 23ac b5be e486 ff3e 6446 85be 45d0 52be
00000050: dd7f ccbe 6c76 b6be e14a 873e 992d 9fbe
00000060: a928 2cbb 10b9 193e d75d 2abe 331c 05bc
00000070: c2e3 6abe 8aea ad3e 0c2d 373e 5d9d d4be
00000080: 00a6 32bd 4838 8f3e 2bdf 9f3e da1e f13e
00000090: cdce c3be fa6d 21be a543 f1be b125 dbbe
000000a0: 917d e8be 570a cabd 2b61 9c3e 96c4 a13e
000000b0: e99a d53e 402d ce3e 8eea 7fbe e323 74bc
000000c0: fed6 ebbe a936 423e 2b25 e4bd a963 ef3e
000000d0: bdf9 4ebe da17 89bd eceb fbbe 0ae7 813e
000000e0: 5896 15be 7ff4 443b 1082 03bd 6382 19be
000000f0: 3e8a 5b3e 0550 d5be a994 8fbe 3d83 bf3d
-0.017937886 -0.30797872 -0.025322651 0.34527525 0.26968187 -0.29529342 0.26098546 -0.05710462
0.3187099 0.52338445 0.4662084 0.21701078 0.26625225 0.1832463 -0.059477564 0.4584578
-0.35482892 0.499076 -0.26030266 -0.20587261 -0.39941302 -0.35637224 0.26424316 -0.31089476
-0.0026269353 0.15012002 -0.1663736 -0.008124399 -0.22938445 0.33968002 0.17888278 -0.4152631
-0.04361534 0.27972627 0.3122495 0.4709385 -0.38243714 -0.15764609 -0.4712192 -0.42802194
-0.454083 -0.098652534 0.30542883 0.31595296 0.4171975 0.40268898 -0.2499182 -0.014901134
-0.46062464 0.18966164 -0.11139902 0.46755722 -0.20212455 -0.066940024 -0.49203432 0.2537158
-0.14608133 0.0030052958 -0.03210646 -0.14991145 0.21439454 -0.41662613 -0.28043106 0.093512036

0.bias f4 [16]
00000000: f081 d0be 7c78 a4bd 9c81 c73e 53f0 103e
00000010: 0424 d8be eec3 eebe 30cf bfbe 719b 93be
00000020: a063 c93e 6a0b 9b3e a405 8a3d 1be6 a83e
00000030: a228 983e 3536 5f3e 5e05 3e3d 2f8f e2be
-0.40724134 -0.08030793 0.38966072 0.14154176 -0.42214978 -0.46633857 -0.3746276 -0.2882953
0.3933382 0.30282146 0.06739357 0.32988057 0.297185 0.21798022 0.046391837 -0.44249865

2.weight f4 [32, 16]
00000000: 323b 74be fcde 7b3e 08cc 243e 119d 21be
00000010: f169 223e 2abe 103e d55c 84bd 4fe7 88be
00000020: bb81 03be ecc3 4cbe fe4e 76bd 6f86 5a3e
00000030: a1fe 7fbc 4e34 6ebd da63 21be b969 063e
00000040: 2ac9 84bd b3d8 c9ba 40a0 debd f5a6 94bc
00000050: 770e 3e3d a087 e8bd 555f 003d 55d1 163e
00000060: 63a7 3f3e cbc9 953a 6496 00bd 9c0c 543e
00000070: 5f02 27be cadd 0d3b 6f83 06be 5889 053e
00000080: a103 923e 927b 68bd b196 2ebe 4eb6 373e
00000090: b2cf 12be aa35 a0bd 36a6 c63d fa4c 373b
000000a0: e4bc 5c3b e182 d5bd ab1c 26bd 7091 14bd
000000b0: aac4 55be ed57 043e f9e7 0a3e 2f7c 683e
000000c0: 5b97 e9bc f46e 3bbe 79ab 69be cba3 2ebe
000000d0: 0a5a 533d a730 7bbe 3a75 1bbe 39ea abbd
000000e0: d131 efbd 0b7f 4d3d cceb 6b3e 71f8 3bbe
000000f0: c8d3 ccbd fe0e 65be 27ae 703e dc6e ee3d
00000100: daea 063b a380 8e3e 773b 9a3a 7f44 45be
00000110: e572 b6bd 2773 57be 5cd8 c23d ffb9 7abd
00000120: d79e 873c 8e9d 97bd 9a77 053e f0a1 48be
00000130: 707e 9fbd a686 8cbd 3778 95bc 2c10 01be
00000140: fbbd 0d3e cd70 0e3e 980a c0bc 37f3 29be
00000150: bbb6 17bd fefe 963d 004b 59be 3362 59be
00000160: 7694 d7bd a810 173e ec16 61bd 5eda 873d
00000170: a7ec d0bd 4210 4fbd 21cb 803e a034 cbbd
00000180: 7f93 40be 0754 653e 45cf 57be 0b49 533c
00000190: 95a3 1d3e 6441 4d3e db22 e4bd 2466 4e3d
000001a0: 6d36 6ebe 920e e5bd f2a6 6dbc ee79 833c
000001b0: c283 f73d c12e 9e3c 38a3 433d c24c eb3d
000001c0: cb45 c93d d0de cabd aa81 65be abd9 413d
000001d0: 1ef6 72be fb4a 25bd 7426 103d e3ae 73be
000001e0: 9347 38be b04c fa3d e7fe e7bd 753b 143e
000001f0: 6c18 ac3d 9dba 42be d673 2ebd 9305 4b3c
00000200: 27ad a4bd 4d0b 843c ab2c ba39 f5f9 0dbe
00000210: 9e66 5cbe fcbe 1ebe b70b 53be 0504 2f3e
00000220: cb3d 3fbe 8d18 31bd f42a ffbd c64e 2e3e
00000230: e361 1e3e 69a9 7cbd 1dd2 0d3d e178 0dbe
00000240: b4a3 65be b215 a53d a811 eabd afa7 c9bd
00000250: 96b4 3fbe a3a1 37be 38a5 afbd 72ac 8a3d
00000260: 4c0c 22be f0d6 25be 5a54 21bd c83f 9c3d
00000270: 726d c33d 237a 6a3e 9ae4 533e 0d91 983c
00000280: 90c3 18be 1357 40be 53c2 573e 4dd9 d83d
00000290: 269b e6bd 6d89 5abe 298d afbd e249 6dbe
000002a0: fb46 f23d 7345 d3bc 8401 0dbe b55c a33d
000002b0: e884 5c3e 161b b6bc dc0e b83b eb15 6abd
000002c0: 67c6 8f3d 57cc 6cbe c92c 153c d633 613e
000002d0: 7dc1 10be f913 0bbe 2127 333e 3dd0 863e
000002e0: 1226 56bd 93e4 a43d 3858 803e 6fe5 50be
000002f0: 42dd 1cbe 2e9b e03d 39f6 173e 53a1 eebd
00000300: 09a6 e13d a397 81be 3a96 97bd d8f5 cebd
00000310: bb1e 813e cdd4 8cbe 3b80 2e3e 3efd c9bc
00000320: 0209 d3bd a31a a93d 0fd8 23bd 44e4 f73c
00000330: 108f 34be 6887 273d 437f 85bc eff0 c03b
00000340: af7f 03bd cea3 a13d e6c9 b53d 842c c03d
00000350: b912 6d3e a222 8abe f3fb 4a3c aa49 2fbe
00000360: a58a d6bd 7dd9 7e3c 7a3d c0bd 4af0 4f3e
00000370: 6f37 64be dea3 00be 12f1 71be 5e46 1dbd
00000380: ad6e 203d aa5a 143e 40e5 59be 0729 4bbe
00000390: 40df d93d 5cc8 3f3e 93cb 2f3c f436 dd3d
000003a0: b3a8 25be 9d31 773e 80bd a53c 1544 72bd
000003b0: 7743 40be 93e2 a83d ede5 76bd 7b03 1cbe
000003c0: 88f1 9bbd 2fa7 4dbe 9060 6d3e 0e9d cf3d
000003d0: 4695 3ebe f439 143e eeb5 adbd 06d9 e03c
000003e0: b1a0 b43d ea77 233e ad91 02be 4bce 393e
000003f0: 2bf1 c63b 27ad cebb 0434 853e 0a5b 0bbe
-0.23850706 0.2459678 0.16093457 -0.15782572 0.15860726 0.14135042 -0.06463019 -0.26738974
-0.12842457 -0.19996613 -0.060133927 0.21340345 -0.015624673 -0.05815535 -0.15760747 0.13126267
-0.064836815 -0.0015399664 -0.10870409 -0.018146018 0.046400513 -0.113539934 0.031340916 0.14728291
0.18716197 0.0011427937 -0.031393424 0.20707935 -0.16309498 0.002164709 -0.13136075 0.13040674
0.28518394 -0.05675847 -0.17049672 0.17940637 -0.14337042 -0.078227356 0.09699671 0.0027969466
0.0033681924 -0.10425354 -0.040554684 -0.036271513 -0.20875803 0.12924166 0.13565053 0.22703622
-0.028514555 -0.18304044 -0.22819318 -0.1705467 0.05159954 -0.24530278 -0.15181437 -0.08394284
-0.116794236 0.050169986 0.23039168 -0.18356492 -0.100013316 -0.22369 0.23503934 0.116422385
0.002058676 0.27832517 0.001176699 -0.1926441 -0.08908633 -0.21040021 0.095139235 -0.061212536
0.016555233 -0.07403098 0.13033906 -0.19593024 -0.07787788 -0.0686162 -0.0182458 -0.12603825
0.13842003 0.13910218 -0.023442551 -0.16596685 -0.0370395 0.07372855 -0.21220016 -0.21228866
-0.105263636 0.14752448 -0.0549535 0.06633447 -0.10201388 -0.050552614 0.25154975 -0.09922147
-0.18806265 0.22395335 -0.21075161 0.012895833 0.15394433 0.20044476 -0.11139461 0.050390378
-0.2326295 -0.1118442 -0.014505135 0.016049352 0.12085678 0.019309403 0.04776308 0.1148925
0.09827765 -0.09905779 -0.22412744 0.047326725 -0.23726699 -0.04035471 0.03519292 -0.23797183
-0.17996053 0.12221658 -0.11327916 0.14475806 0.084030956 -0.190165 -0.04259094 0.012391466
-0.08040839 0.01611867 0.00035509965 -0.13864882 -0.2152352 -0.15502542 -0.20609938 0.17091377
-0.18675916 -0.043236304 -0.124593645 0.17022237 0.15467028 -0.061685 0.034624208 -0.13815643
-0.22425729 0.08060779 -0.11429149 -0.09846436 -0.18721232 -0.17932753 -0.08576435 0.067711726
-0.15825003 -0.16195273 -0.039387085 0.07629353 0.095423594 0.22898154 0.20692673 0.018623853
-0.14918351 -0.18783216 0.21070223 0.10588322 -0.11260061 -0.21341486 -0.08571846 -0.23172715
0.11829945 -0.025789952 -0.1377011 0.07976667 0.21535075 -0.022229712 0.0056170058 -0.05714981
0.07020264 -0.23124824 0.009104916 0.2199243 -0.1413631 -0.13581838 0.17495395 0.26330748
-0.0522824 0.080514096 0.25067306 -0.20400022 -0.15318778 0.10967098 0.1484002 -0.11651864
0.11017997 -0.25311002 -0.074017 -0.10105485 0.25218758 -0.27506104 0.17041104 -0.024656888
-0.103044525 0.08257034 -0.04000097 0.030260213 -0.17632699 0.040900618 -0.016296035 0.0058880965
-0.03210419 0.078925714 0.088764 0.09383491 0.23151673 -0.26979548 0.012389171 -0.17117944
-0.10475663 0.015554783 -0.09386726 0.20306507 -0.22286771 -0.1256251 -0.23627117 -0.038397186
0.03916805 0.1448771 -0.21278858 -0.1983987 0.10638285 0.18728775 0.010729688 0.10801497
-0.16177635 0.2414002 0.020231962 -0.05914696 -0.18775736 0.082463406 -0.060277868 -0.15235703
-0.07614428 -0.20083307 0.23181367 0.10137378 -0.18611631 0.14475232 -0.08481966 0.027447235
0.08819712 0.15963712 -0.12750883 0.18145101 0.00607123 -0.0063072625 0.26016247 -0.13608947

2.bias f4 [32]
00000000: 1069 0cbe 062f ebbd f380 433e 052c 783d
00000010: 7725 77be 7034 3f3d 0577 9d3d d7db 53be
00000020: ddc8 6cbe e28e df3d de4b 31bd 29ee 103e
00000030: 06c1 40be 03c9 563e 1472 13be 0152 7cbd
00000040: a77f a63a 79fa aebd 6544 18bd 0c12 683e
00000050: 1ccb 8fbd a309 11be 39d3 723e 3fcf dfbd
00000060: 31be 1cbe ab53 463e 4f7c 6f3e 40ad acbb
00000070: 0937 7b3c 1cbf 52bd ffce f63d b3e3 a93c
-0.13711953 -0.114835784 0.19092159 0.060588855 -0.24135385 0.046680868 0.07688717 -0.20689331
-0.23123498 0.109159246 -0.043285243 0.14153351 -0.18823633 0.20975117 -0.14398986 -0.061601643
0.0012702838 -0.085438676 -0.0371746 0.22663134 -0.07021162 -0.14163832 0.23713388 -0.10928201
-0.15306927 0.19367854 0.23387264 -0.0052696764 0.015332946 -0.051451787 0.120512 0.020738458
