weights/shared_weights_6_mujoco.pth (torch, 4752 bytes, 4 tensors)

0.weight f4 [16, 4]
0	0xbe8cf277	-0.27528736
1	0xbf0048fc	-0.50111365
2	0xbd887ea9	-0.066647835
3	0xbec9345a	-0.39297754
4	0xbec6a1d2	-0.38795334
5	0xbe2d04b1	-0.16896321
6	0xbe4ac485	-0.19801529
7	0xbd8f7dd1	-0.070064195
8	0xbe18bf5e	-0.14916751
9	0x3f31d54f	0.6946611
10	0x3e0c6cb1	0.13713337
11	0x3ee4e147	0.44703123
12	0x3e2901bc	0.16504568
13	0x3f172cb1	0.5905257
14	0x3e5ebd14	0.21751815
15	0x3ef8e6bb	0.48613533
16	0xbe8bc08b	-0.27295336
17	0xbe65c6ee	-0.22439167
18	0x3ee84148	0.45362306
19	0xbeca5dfd	-0.39524832
20	0xbec5d210	-0.38636827
21	0xbe989f40	-0.29808998
22	0xbee8d40a	-0.45474273
23	0x3f1ad412	0.60479844
24	0x3e74be87	0.23900805
25	0xbeec1d8e	-0.46116298
26	0x3dc16223	0.09442546
27	0xbebab9f8	-0.36470008
28	0xbd06abfd	-0.032878865
29	0x3b83c82c	0.004021665
30	0x3ecaab43	0.39583787
31	0xbdacb029	-0.084320374
32	0x3d8959c8	0.067065775
33	0xbf4e7403	-0.8064577
34	0xbe5aee34	-0.2137993
35	0xbf102be1	-0.56316954
36	0x3e119fd6	0.14221129
37	0x3f329a24	0.6976645
38	0x3ea85cbd	0.32883254
39	0x3eef6017	0.46752998
40	0xbedd889d	-0.4326829
41	0x3d9a7287	0.075413756
42	0x3ed9a374	0.42507517
43	0xbe8e1fb6	-0.2775857
44	0xbeba87b2	-0.36431652
45	0x3f101bde	0.5629252
46	0x3f06d741	0.526722
47	0x3eeb89dd	0.4600362
48	0xbe1b8865	-0.15188749
49	0x3e3d225f	0.18470143
50	0x3d254505	0.040349025
51	0x3e8feb94	0.2810942
52	0xbe6b4392	-0.22974995
53	0x3f50998b	0.8148429
54	0x3e85f969	0.26166847
55	0x3ed362ba	0.4128626
56	0x3e888d27	0.2667019
57	0xbf06cb49	-0.5265394
58	0x3e19460c	0.14968127
59	0xbdbd5773	-0.09245195
60	0x3ee444a6	0.44583625
61	0x3eaa1c21	0.33224586
62	0xbe89428f	-0.26808593
63	0x3f16efcc	0.5895965

0.bias f4 [16]
0	0x3d134005	0.035949726
1	0x3e9dbeb7	0.30809566
2	0xbecb5ba5	-0.39718357
3	0xbea5e374	-0.32400095
4	0x3ed85f4f	0.42260215
5	0xbee57c6e	-0.44821495
6	0xbe815ef7	-0.25267765
7	0xbe2eda30	-0.1707542
8	0xbdb0ef4f	-0.086393945
9	0xbe757d38	-0.23973548
10	0xbeb55e2e	-0.35423416
11	0xbe02bb56	-0.12766775
12	0x3edb9f91	0.42895177
13	0xbe9063ca	-0.28201133
14	0x3e859acf	0.26094672
15	0x3ef4a1a6	0.47779578

2.weight f4 [32, 16]
0	0xbe3d5265	-0.18488462
1	0xbd901713	-0.07035651
2	0xbd6029cd	-0.054727364
3	0x3db4aa94	0.08821598
4	0x3e311d2f	0.17296289
5	0x3dd50626	0.10401563
6	0xbe317056	-0.17328009
7	0x3e16d7b1	0.14730717
8	0xbe45bded	-0.19310732
9	0x3e99be27	0.30027887
10	0x3e3be79f	0.18350075
11	0x3e5ef0d9	0.21771564
12	0x3e5f8c25	0.21830805
13	0x3e207054	0.1566785
14	0x3e330aa0	0.17484522
15	0x3c61c012	0.013778703
16	0xbd60b0f9	-0.054856274
17	0x3de26efd	0.110563256
18	0x3e1cb2de	0.15302607
19	0x3d506155	0.050874073
20	0x3e91e09a	0.2849167
21	0xbe6c2cdb	-0.23063986
22	0xbe925aed	-0.28584996
23	0x3e153aa6	0.14573154
24	0xbe5e256a	-0.2169396
25	0x3cd7c30e	0.026338127
26	0x3e23bfe3	0.15991168
27	0x3e227e18	0.15868413
28	0x3e535081	0.20636179
29	0xbe4e5a2c	-0.20151585
30	0x3e879aa8	0.2648518
31	0xbdec2c86	-0.1153193
32	0x3cff8e5a	0.031195808
33	0x3e0b5979	0.1360835
34	0x3e8e9a79	0.27852228
35	0x3e30f606	0.1728135
36	0xbe17b1cd	-0.1481392
37	0x3e695560	0.22786474
38	0x3dc48923	0.09596469
39	0x3de85978	0.1134519
40	0xbda49445	-0.08036093
41	0x3d66174a	0.056174554
42	0x3e16a2b4	0.14710504
43	0x3e9883d9	0.29788092
44	0x3e747517	0.23872791
45	0x3ea93bbf	0.33053395
46	0xbdd78fe2	-0.1052549
47	0x3e079184	0.13239104
48	0x3da0d163	0.07852437
49	0xbdd279f7	-0.10277169
50	0xbe02567a	-0.127283
51	0xbd4ffa71	-0.05077595
52	0xbdc2e457	-0.095162086
53	0x3dbcc39e	0.092169985
54	0xbd7ee7ce	-0.062232785
55	0x3e619c5d	0.22032304
56	0x3d0b4d4c	0.034009263
57	0xbe7edb6e	-0.24888393
58	0x3e67b080	0.22625923
59	0xbe3a1ea3	-0.1817575
60	0x3df4abed	0.11946855
61	0xbdf94b52	-0.12172569
62	0x3cd598df	0.026073871
63	0x3e410587	0.18849765
64	0xbe9deda8	-0.3084538
65	0x3d0b80c2	0.03405834
66	0x3e637fe5	0.22216757
67	0x3e87cd23	0.26523694
68	0xbe1f090a	-0.15530792
69	0x3e5cde56	0.2156919
70	0xbe1ac7fd	-0.15115352
71	0xbcc705f3	-0.024294829
72	0xbd804382	-0.06262876
73	0x3e0fc7a4	0.14041
74	0x3e32f3ed	0.17475863
75	0x3d772d04	0.060345665
76	0x3e89fdcc	0.26951444
77	0x3e2f501c	0.17120403
78	0xbe213b69	-0.1574532
79	0xbe054727	-0.13015424
80	0x3e5203fe	0.20509335
81	0x3d95ac82	0.07308294
82	0x3d4d4f2c	0.050124332
83	0xbe18d5d3	-0.14925317
84	0x3d852054	0.06500307
85	0xbdbb15a3	-0.09134986
86	0x3e5722ee	0.21009418
87	0xbe207236	-0.15668568
88	0x3c99a33c	0.018754594
89	0xbe6a37ae	-0.22872803
90	0xbc8642ea	-0.016389329
91	0x3c19d249	0.009388515
92	0x3de05001	0.109527595
93	0xbeb40d1f	-0.3516626
94	0x3e252f8f	0.16131423
95	0x3e13ba4b	0.14426534
96	0x3c204873	0.009782898
97	0x3c344b0a	0.011004219
98	0x3e316ef5	0.17327483
99	0xbe45771d	-0.1928372
100	0x3e3e7ecc	0.18603057
101	0xbc3aa088	-0.011390813
102	0x3d085809	0.033287082
103	0xbe5479d5	-0.207496
104	0x3e839df2	0.2570644
105	0xbe730645	-0.2373286
106	0xbe09180f	-0.13388084
107	0xbe1dc64e	-0.15407678
108	0xbc0ebd02	-0.008712055
109	0xbcbe33eb	-0.023218116
110	0xbd2f84f5	-0.042851407
111	0xbe3b1be2	-0.18272355
112	0x3e7d901b	0.24762003
113	0x3e48ba40	0.19602299
114	0x3c82f4c6	0.015985858
115	0x3dc4aae9	0.09602911
116	0x3de18442	0.11011554
117	0xbe12a8b5	-0.14322169
118	0x3e061218	0.1309284
119	0x3e2e48bf	0.17019938
120	0x3df27d45	0.118402995
121	0xbe970c63	-0.29501638
122	0x3e69f3b3	0.2284687
123	0xbe2c29c0	-0.16812801
124	0xbe03cfe7	-0.12872277
125	0xbbcbc432	-0.0062184567
126	0xbe3220c1	-0.17395307
127	0xbe7cf23f	-0.24701785
128	0x3d1dc272	0.038515516
129	0x3e2f9390	0.17146134
130	0xbe4c084e	-0.19925043
131	0xbe86405b	-0.26220974
132	0x3adcc2c8	0.0016842717
133	0x3ca15547	0.019693984
134	0x3cee3097	0.029075904
135	0x3e2f7ebb	0.17138188
136	0x3e57f245	0.21088512
137	0x3d1935df	0.03740489
138	0x3dcecb59	0.10097379
139	0xbeafeaea	-0.34358913
140	0x3db7e57f	0.0897932
141	0xbe867379	-0.26259974
142	0xbe0f136b	-0.13972251
143	0x3de27e9d	0.11059306
144	0x3e3a4427	0.1819006
145	0xbc5106f9	-0.01275801
146	0x3e75c6d6	0.24001631
147	0xbde9e968	-0.11421472
148	0x3dea54a8	0.11441928
149	0xbdb63db7	-0.0889849
150	0x3e4dcb30	0.20097041
151	0x3cb958c2	0.02262533
152	0x3e8e2cd8	0.27768588
153	0x3d8c139a	0.06839676
154	0xbe06a4c7	-0.13148795
155	0x3dd9fd31	0.106439956
156	0x3debd76d	0.115156986
157	0x3e775c1a	0.24156228
158	0x3daef9e4	0.085437566
159	0xbd097ae2	-0.033564456
160	0x3e894ee7	0.2681801
161	0xbc776858	-0.015100561
162	0x3e0b215f	0.13586949
163	0xbc8c2f88	-0.017112508
164	0x3e2d2c8c	0.16911525
165	0x3b38ad46	0.002817945
166	0xbdb9dba4	-0.09075096
167	0x3e069040	0.13140965
168	0x3dd39ef7	0.103330545
169	0xbde098e6	-0.10966663
170	0x3e1fe9de	0.15616557
171	0x3e2a3350	0.16621137
172	0xbe5344de	-0.2063174
173	0x3d946ec0	0.072476864
174	0x3e12c7be	0.14334008
175	0xbd949554	-0.072550446
176	0xbe420463	-0.18946986
177	0xbe0db33f	-0.13837908
178	0x3e7f1334	0.24909669
179	0xbba38ef4	-0.0049914066
180	0xbd230d20	-0.03980744
181	0x3b1ee323	0.002424427
182	0xbe6e51cc	-0.2327339
183	0x3cbcfff6	0.02307127
184	0xbe5582ba	-0.2085065
185	0x3eb272ae	0.3485312
186	0x3bec27b8	0.0072068833
187	0xbd9982fb	-0.07495686
188	0x3dcbbd2b	0.0994819
189	0x3e55e2cc	0.20887297
190	0xbbf4c813	-0.00747014
191	0x3ea75cf7	0.32688114
192	0xbed2b3a8	-0.41152692
193	0x3e1481da	0.1450266
194	0x3db7eef6	0.08981125
195	0x3e76cf75	0.24102576
196	0xbda03675	-0.07822887
197	0xbdb80580	-0.08985424
198	0x3ddd782c	0.108139366
199	0x3d1a33b0	0.03764695
200	0xbeea16d4	-0.4572054
201	0x3d46616d	0.048432756
202	0xbe5b968c	-0.21444148
203	0x3da60dab	0.08108076
204	0xbd41b658	-0.047293037
205	0x3ddacff7	0.106841974
206	0xbe6af1f4	-0.2294386
207	0x3c377194	0.011196513
208	0xbd751d73	-0.059842538
209	0xbbab77da	-0.0052327933
210	0x3e9c0abe	0.30476946
211	0x3e902172	0.28150517
212	0x3e03d327	0.12873517
213	0x3c2560a7	0.0100938445
214	0xbe841b54	-0.258021
215	0x3cafaf4d	0.021445895
216	0xbdd6e333	-0.104925536
217	0x3ec65acc	0.38741148
218	0xbc8d4e2f	-0.017249195
219	0x3e1e7bc6	0.15476903
220	0x3dcf4570	0.10120666
221	0x3e992ada	0.29915506
222	0xbe7a5bbf	-0.24449061
223	0x3e8e3e89	0.27782086
224	0x3decd76c	0.11564526
225	0x3dcd30c4	0.10019067
226	0xbca91da2	-0.020644013
227	0xbe4919c8	-0.19638741
228	0x3d4e2491	0.05032784
229	0xbe5e2ebf	-0.2169752
230	0xbe0f27af	-0.13979982
231	0xbd4e28cc	-0.050331876
232	0xbe468758	-0.19387567
233	0xbdf9b856	-0.121933624
234	0xbd348e51	-0.044081036
235	0xbd919b2c	-0.07109675
236	0x3e156271	0.14588334
237	0xbe6cd522	-0.23128179
238	0x3e9b9e78	0.3039434
239	0x3e2deb74	0.1698435
240	0xbd5c8b0c	-0.053843543
241	0xbe50d9e5	-0.2039562
242	0x3de5522b	0.11197313
243	0x3e641a32	0.22275618
244	0xbe4a85c4	-0.1977759
245	0xbce1fcea	-0.02758642
246	0x3e4ec6d1	0.2019303
247	0x3e8e25a5	0.27763095
248	0x3e4b54ec	0.19856614
249	0xbdbcd0d8	-0.09219521
250	0x3e8bda14	0.27314818
251	0xbdf11eb0	-0.11773431
252	0xbeaae2a4	-0.33376038
253	0x3c20475f	0.009782641
254	0xbe92296c	-0.28547227
255	0xbea4b58f	-0.32169768

2.bias f4 [32]
0	0x3e611c61	0.21983482
1	0xbdb08a5b	-0.08620139
2	0xbdcf85ed	-0.10132966
3	0x3e155820	0.14584398
4	0xbe6ff7ef	-0.23434423
5	0x3dd6f06d	0.10495076
6	0xbe5556cc	-0.20833892
7	0xbb9e6973	-0.004834348
8	0xbe316a8a	-0.17325798
9	0xbe76f1c5	-0.24115665
10	0x3b5622e0	0.0032674596
11	0xbdd56a80	-0.10420704
12	0x3e6fa6f4	0.23403531
13	0xbd2dcafa	-0.0424299
14	0xbdbeadf3	-0.09310522
15	0x3cff8704	0.03119231
16	0xbe47452e	-0.19459984
17	0x3aa27e23	0.0012397211
18	0x3e17237b	0.14759628
19	0x3c0fce95	0.00877728
20	0x3ea887e2	0.3291617
21	0x3e232cc4	0.15935045
22	0xbe904eb9	-0.2818506
23	0xbe478946	-0.1948596
24	0x3dceac9f	0.100915186
25	0x3e95db20	0.29268742
26	0xbde72dd1	-0.11288036
27	0x3dc08159	0.09399671
28	0x3e425e40	0.18981266
29	0xbe4c4243	-0.19947152
30	0x3bba34fc	0.0056825858
31	0xbd2c251b	-0.042027574
