weights/std.pth (torch, 1536 bytes, 1 tensors)

0.weight f4 [1, 32]
0	0xbd5d46f8	-0.05402276
1	0xbe291e5c	-0.16515487
2	0x3e23d9c4	0.1600104
3	0xbc891c4e	-0.01673713
4	0x3e02e06f	0.12780927
5	0xbd79ceb9	-0.06098816
6	0x3e3a493a	0.18191996
7	0x3dbdbd5a	0.092646316
8	0xbd8db3a3	-0.069190286
9	0xbde01d1d	-0.10943053
10	0x3bcdd383	0.0062813177
11	0x3df581ee	0.11987673
12	0xbda1c888	-0.078995764
13	0xbe2c63f0	-0.16834998
14	0x3de13d29	0.109979935
15	0xbe21b40f	-0.15791343
16	0x3de79762	0.11308171
17	0x3b3e83c4	0.0029070238
18	0xbc938372	-0.018007014
19	0xbde1b1e6	-0.110202596
20	0x3e39878e	0.18118116
21	0x3d7c8c5b	0.06165729
22	0xbe263311	-0.16230418
23	0x3e2b1859	0.16708507
24	0x3c584544	0.013200108
25	0xbda86ddf	-0.08224081
26	0xbdece7cf	-0.115676515
27	0xbdfaa550	-0.12238562
28	0x3d0b794d	0.03405123
29	0x3d7f226c	0.062288687
30	0x3d960d0d	0.07326708
31	0x3e282903	0.16421895
