weights/std6v3_mujoco.pth (torch, 1660 bytes, 1 tensors)

0.weight f4 [1, 32]
0	0x3c4f75d7	0.012662373
1	0x3d845167	0.06460839
2	0x3d08925a	0.033342697
3	0x3d6b9d52	0.05752308
4	0xbe395735	-0.18099673
5	0x3bf4097e	0.0074474206
6	0x3de9c3db	0.114143096
7	0x3d46c670	0.04852909
8	0x3dc32499	0.09528465
9	0x3d4b7ecf	0.04968148
10	0x3daf9b0e	0.08574496
11	0x3b93f0ad	0.004514775
12	0xbe5533ac	-0.20820493
13	0xbe18c574	-0.14919072
14	0x3e3edce5	0.18638952
15	0xbe0eae24	-0.13933617
16	0x3e027bb8	0.12742507
17	0x3e407a0f	0.18796562
18	0xbe07d460	-0.13264608
19	0x3e3f9189	0.18707861
20	0x3dc24511	0.094858296
21	0xbdb1eb72	-0.08687486
22	0x3d462b54	0.048381165
23	0xbe20068f	-0.15627502
24	0x3e2d98ff	0.16952895
25	0xbdd4de32	-0.10393943
26	0xbe5dc2a8	-0.21656287
27	0xbd8458fa	-0.064622834
28	0x3dcd9b51	0.1003939
29	0x3ccb8237	0.024842365
30	0xbdd9c8b5	-0.10633985
31	0x3df2f8df	0.11863875
