weights/std6v2_mujoco.pth (torch, 1660 bytes, 1 tensors)

0.weight f4 [1, 32]
00000000: 5c99 a13d 3bad 93bd 7cde 8abc 7ecd 26be
00000010: 8288 3b3e 6a0d ae3c 050a 40bb f856 843d
00000020: f83e 6bbd 1faf 36be eb73 f9bd d004 62bd
00000030: d9e7 cd3c f069 dc3d 8c6b f7bd 5963 9e3d
00000040: 3328 623d 9066 1abe 301f de3d c860 f03d
00000050: 5a4b 833d c2ee 2dbd 776f efbd 63a8 dd3c
00000060: ba4e 4b3e f686 5ebe f15f 99bd ad7f ff3d
00000070: e24f 62be c3f1 fabc 30e0 b23c 071d 4abd
0.07890579 -0.072107755 -0.016951792 -0.16289327 0.18313792 0.02124663 -0.0029302847 0.064619005
-0.0574331 -0.17840241 -0.12180313 -0.05518037 0.025134968 0.107623935 -0.1208106 0.07733793
0.05521412 -0.15078187 0.10845792 0.117372096 0.064108565 -0.042464025 -0.11691182 0.027057832
0.1985425 -0.21731171 -0.074890025 0.12475524 -0.22100785 -0.03063286 0.021835417 -0.04934409
