weights/std6_mujoco.pth (torch, 1648 bytes, 1 tensors)

0.weight f4 [1, 32]
0.044200182 -0.15351912 0.22954471 -0.10375238 0.08480923 -0.23624054 0.1072437 0.14074977
-0.0944835 0.1433628 0.13367827 0.078249805 -0.11895636 0.11092478 -0.2522188 0.1806696
0.20972562 0.13923863 -0.051923275 0.009201333 -0.10330004 0.09802878 0.24667257 0.23022528
-0.041893043 -0.09500489 -0.009117229 -0.0015362856 -0.16015139 -0.06971842 0.014544844 -0.20656525
00000000: 400b 353d 1e34 1dbe c50d 6b3e 217c d4bd
00000010: 76b0 ad3d 0ae9 71be 96a2 db3d b520 103e
00000020: 9180 c1bd b3cd 123e f5e2 083e 6f41 a03d
00000030: 649f f3bd 882c e33d d322 81be 7401 393e
00000040: 50c2 563e 9294 0e3e 80ad 54bd 30c1 163c
00000050: f98e d3bd 50c3 c83d bc97 7c3e 2dc0 6b3e
00000060: 0a98 2bbd ec91 c2bd 6e60 15bc 315d c9ba
00000070: bafe 23be 88c8 8ebd 7f4d 6e3c d785 53be
