weights/std_3.pth (torch, 1548 bytes, 1 tensors)

0.weight f4 [1, 32]
-0.04951685 -0.17454112 0.16093826 -0.00413312 0.1394221 -0.05380992 0.19618969 0.102311045
-0.08256586 -0.12332799 -0.0075805583 0.111358546 -0.064557925 -0.18273327 0.123882584 -0.1721887
0.110546194 0.017244423 -0.02875162 -0.124408714 0.19607642 0.07474758 -0.17631836 0.17618191
0.02508673 -0.0951708 -0.12942255 -0.1323296 0.04289534 0.050341863 0.060210355 0.16737175
00000000: 2ed2 4abd e8ba 32be 00cd 243e 206f 87bb
00000010: abc4 0e3e ca67 5cbd f3e5 483e 7488 d13d
00000020: 4a18 a9bd 6393 fcbd 5566 f8bb f30f e43d
00000030: f236 84bd 6e1e 3bbe 27b6 fd3d 3c52 30be
00000040: 0b66 e23d 2d44 8d3c 8488 ebbc ffc9 febd
00000050: 42c8 483e 4215 993d cd8c 34be 0869 343e
00000060: b082 cd3c e9e8 c2bd 5887 04be 6981 07be
00000070: 06b3 2f3d 4533 4e3d 229f 763d 8063 2b3e
