weights/std_5.pth (torch, 1548 bytes, 1 tensors)

0.weight f4 [1, 32]
000000 58 59 3a bd cb 02 39 be d0 bc 27 3e e0 8b 19 3b
       -0.04549536 -0.18067472 0.1638062 0.002342932
000010 4d ed 15 3e de 4a 48 bd b0 4b 50 3e 89 9f dc 3d
       0.14641304 -0.048899524 0.20341372 0.107726164
000020 9b 39 b5 bd 58 73 05 be 9f a9 74 bc a3 e1 d8 3d
       -0.08848878 -0.13032281 -0.014933019 0.10589912
000030 99 ed 75 bd 60 7e 42 be 74 25 06 3e d5 a3 37 be
       -0.060041044 -0.1899352 0.13100225 -0.1793359
000040 76 bb e4 3d e5 54 ca 3c 54 a0 0c bd 53 42 07 be
       0.11168568 0.024698684 -0.03433259 -0.13208894
000050 1e 26 50 3e 5d f9 a6 3d 8e c2 3b be ae 21 3b 3e
       0.2032704 0.08153031 -0.18335935 0.18274567
000060 61 bf f8 3c 4a f4 cf bd 15 26 0b be db cc 0d be
       0.030364694 -0.10154016 -0.13588746 -0.13847677
000070 4e 41 45 3d b8 fb 34 3d b9 a5 5a 3d f9 c8 2b 3e
       0.048157983 0.04418537 0.0533807 0.16775884
