weights/std_4.pth (torch, 1548 bytes, 1 tensors)

0.weight f4 [1, 32]
0	0xbd43359f	-0.04765856
1	0xbe34d721	-0.1766019
2	0x3e26f429	0.16304077
3	0xbb2998a8	-0.0025878344
4	0x3e10acc9	0.14128412
5	0xbd552383	-0.05203582
6	0x3e4a332f	0.19746087
7	0x3dd5ff54	0.104490906
8	0xbdade433	-0.08490791
9	0xbdfee601	-0.124462135
10	0xbc12d96a	-0.008962968
11	0x3ddef048	0.10885674
12	0xbd83a3f5	-0.06427757
13	0xbe3c99bb	-0.18418019
14	0x3e003141	0.12518789
15	0xbe3217e3	-0.17391925
16	0x3de57824	0.11204556
17	0x3c98dcd5	0.018659988
18	0xbcfb33f5	-0.030664423
19	0xbe00aea4	-0.1256662
20	0x3e4a13e7	0.19734155
21	0x3d9b7032	0.07589759
22	0xbe361102	-0.17779925
23	0x3e352a0b	0.1769182
24	0x3ccc7a8c	0.024960779
25	0xbdc6190c	-0.09672746
26	0xbe0619e1	-0.1309581
27	0xbe097e7a	-0.13427153
28	0x3d38ac68	0.045086294
29	0x3d45432b	0.04815976
30	0x3d6d4e58	0.057936043
31	0x3e2a6af3	0.1664236
