weights/std_6.pth (torch, 1548 bytes, 1 tensors)

0.weight f4 [1, 32]
000000 15 af 3b bd f6 5c 39 be 9e cc 27 3e dd 26 40 3b
       -0.045821268 -0.18101868 0.16386649 0.002932004
000010 f8 3c 16 3e ea 22 47 bd fa 3f 51 3e bb 6d dd 3d
       0.14671695 -0.04861728 0.20434561 0.10811945
000020 c6 f3 b6 bd 1c 1e 07 be 47 09 81 bc 7b b0 d8 3d
       -0.08933215 -0.1319508 -0.015751494 0.10580536
000030 32 1c 71 bd e1 54 43 be 1c fa 06 3e a7 52 38 be
       -0.05886478 -0.19075347 0.13181347 -0.1800028
000040 15 63 e4 3d b9 0b d9 3c 80 78 0e bd 77 b4 08 be
       0.11151711 0.026494848 -0.034782887 -0.13350092
000050 76 3e 51 3e 3e 8b a8 3d 02 8a 3c be 73 2b 3c 3e
       0.20433983 0.08229683 -0.18412021 0.1837595
000060 cc 56 01 3d 9a 54 d1 bd a5 da 0b be b6 0e 0e be
       0.031576917 -0.102212146 -0.13657625 -0.138728
000070 1f 78 46 3d 9f 84 33 3d 20 05 59 3d 2c 2d 2c 3e
       0.0484544 0.04382765 0.052983403 0.16814107
