weights/std_2.pth (torch, 1548 bytes, 1 tensors)

0.weight f4 [1, 32]
0	0xbd4c63d8	-0.049899906
1	0xbe2ffe0b	-0.17186753
2	0x3e233d70	0.15941405
3	0xbc01f375	-0.00793158
4	0x3e0b0c29	0.13578857
5	0xbd62df83	-0.05538894
6	0x3e43ff1d	0.19140287
7	0x3dcb5fba	0.09930368
8	0xbd9d1153	-0.0766932
9	0xbdf278c5	-0.11839441
10	0xbb3af307	-0.0028526203
11	0x3de82a7d	0.11336229
12	0xbd8f1add	-0.06987546
13	0xbe35e1b6	-0.17761883
14	0x3df4198e	0.11918937
15	0xbe2b360e	-0.16719839
16	0x3de39b37	0.11113589
17	0x3c4353ba	0.011921817
18	0xbcd0d52f	-0.025492279
19	0xbdf49135	-0.119417585
20	0x3e4352a8	0.190745
21	0x3d908b3f	0.07057809
22	0xbe2f8ed9	-0.17144336
23	0x3e2ff92f	0.171849
24	0x3cadec18	0.021230742
25	0xbdb9d1dc	-0.090732306
26	0xbdff4575	-0.1246442
27	0xbe04630a	-0.12928405
28	0x3d2523b2	0.040317245
29	0x3d5e2df9	0.05424306
30	0x3d84b623	0.06480052
31	0x3e2a0147	0.1660205
